save/quick_test_20250808_074703/model_epoch_1.pth (torch, 223867 bytes, 46 tensors)

embed_layer.weight f4 [120, 16]
00000000: 5d69 ccbe 3649 bd3f 7616 e63f b229 a03e
00000010: 5e64 793f f6a5 6abf f5b7 b6be dbb5 91bd
00000020: 6a63 4e3c bad2 0340 ce0c e9be 70e2 8b3f
00000030: 3500 2d3f 45b4 c03f 0a20 f83f 5097 7ebf
00000040: cb74 933e 52e3 a53d c48c 693f f5c0 b3bf
00000050: d998 c2bf 2f18 f1bf d28a babf 4152 923d
00000060: f581 ac3f 24d3 9ebf 0064 5bbe 9a3f 50bf
00000070: 4302 e2be 0db2 5f3f d82a 453f 5ac5 8f3f
00000080: 3b5a 39bd 7682 cbbb 933c 0ebf c779 8dbf
00000090: 618c bcbe 1d1e 9bbd 3fa9 933f 11c9 f1bd
000000a0: 36af 913e 8dd3 dabc af79 8fbe 571a 703f
000000b0: b24b e73d 0bbf 903f 9ccc 9cbf ce1d eabe
000000c0: 7b45 bb3f 070e 2e3f 9cc7 1dbf 7210 663f
000000d0: 06d9 933e e18f 80bf 89b7 8abf 2b03 08c0
000000e0: ead8 853f 9113 0440 313a 743f 52aa 413f
000000f0: ba56 a73f 3f40 a53f 883e f1be 97a1 623f
00000100: e43a d23f f3ca 28bf 5cdd 223e e4db cf3e
00000110: d275 1e3e 5648 b93f f71e 99be eecc af3e
00000120: 2eb0 823f e25d b1bf 8cee 8e3f 5df9 2c3e
00000130: ae83 6b3f 711f 9c3f bfaa 04be 1e5d 8e3f
00000140: 0b3c ba3f b277 e8be cadb 9f3f c9f9 3b3f
00000150: debb 8dbe d7ee 96bf b35d 493e 9820 3d3e
00000160: 1347 e13e c5bf 523f a437 c9bf 5877 013d
00000170: 017d d73e 4590 98bd ce3b 503f daf9 7cbd
00000180: 5e2a 85bf 23aa 103f e759 5d3f b864 80bf
00000190: d9ac 2d3f 8eb3 e43d 86d4 a4bf 37ec 0d3f
000001a0: eca8 87bf ff0c bc3f df56 9fbf 7585 953f
000001b0: 3791 1040 620c f3be a69d dfbf 03f9 8c3e
000001c0: 969f 943f 6745 28be 9209 82bf 4299 b1bf
000001d0: 1295 b03e 7e25 8abd ee71 ed3e 0920 7a3f
000001e0: dd33 7abf 2db0 d6bf 4a8e 0ac0 6c4c c2bf
000001f0: ce15 90be 7f13 4e3f 4149 393d b225 40bf
00000200: 8cb2 7b3f 6c23 bc3e 36f8 98bf 84d5 ab3e
00000210: 6e26 b23f db43 00bf b92f dd3e 0c82 df3e
00000220: 96d8 c9bf a678 a3bf f0f0 b53f c554 ca3e
00000230: fc94 eebe 27b1 94bf 7160 e9bd 0c8c 83bf
00000240: 79d2 ecbe 531c abbf 5d0b 7a3f 9698 1c3f
00000250: 1505 99bf c4d9 05c0 2101 ecbe 071e 9bbf
00000260: c1f9 8c3f b063 bd3f e260 073e 4fdc 1140
00000270: 5bdb cc3f 3d5d d5bd 6505 7d3f 9310 b63e
00000280: a042 84be 2f75 12bf 0090 9abf 59be 26bf
00000290: 1185 b83f cdaf eabe 37f8 8a3f 7742 e13e
000002a0: b642 babe 0f35 39bf 598f 46be 2e78 703f
000002b0: 81e0 2e3e 34a6 983f 7fd9 5a3f 6741 343f
000002c0: c300 e3be 5c06 49bf e2d4 e8bc 44e3 19be
000002d0: 87ec 3a3e feb3 46bf 0eaf 023f a124 633e
000002e0: cf34 8bbc 3b1e cb3f b8c9 df3e b4a7 13c0
000002f0: 8ebb df3d 0839 8cbf a337 27bf a4a6 12be
00000300: f233 983c 57bb d0be db64 9abe b91a 63bf
00000310: 3d7f 54bf f981 003f 0823 b1be ae4e 123f
00000320: 17ce 6dbe bdf6 07c0 5fb1 c1bf 5cae 5cbf
00000330: 0d85 8d3f 3173 6a3f cfab 76bf a03c 523f
00000340: 0ac2 db3e 16d5 4f3e a147 633f 1031 cfbf
00000350: 0b5b 31bf 8343 963f 9d79 973f e139 97bf
00000360: 6bd4 cd3f af36 3fbf 85d5 4abf a11f 7b3f
00000370: 0958 163f 83b0 9a3e d217 b23f 68dc 32bf
00000380: 7b7c 38bf 4745 813e 4e7b b3bf 8187 11bd
00000390: c3e2 37be ed36 5cbe ffb4 553f 8233 983e
000003a0: 84d9 98bf 0f53 8dbe 8677 9b3f d001 7dbf
000003b0: be3a be3f 5b20 023e d70f fa3f 79c1 52bf
000003c0: 3661 b13e 7445 373f 787d c8be 1960 023f
000003d0: 40be f2bf 6faa 98bf 6f15 94be d448 193f
000003e0: 21b0 7e3e e49f eabe 1c15 b13f b554 ff3f
000003f0: bf90 a03d cbfd 26c0 3680 653f 2600 803e
-0.39924136 1.4787967 1.7975605 0.3128181 0.97418773 -0.91659486 -0.35687223 -0.07114764
0.012596944 2.0597367 -0.45517582 1.0928478 0.6757844 1.5055014 1.9384778 -0.99449635
0.28800043 0.080999985 0.91230416 -1.4043261 -1.5202895 -1.8835505 -1.4573615 0.07144595
1.347716 -1.2408185 -0.21424866 -0.8134705 -0.4414235 0.8738106 0.770185 1.1232102
-0.045252066 -0.0062106205 -0.5556118 -1.1052788 -0.3682585 -0.07574103 1.1536025 -0.118059285
0.28453988 -0.026712203 -0.28022525 0.9379019 0.112937346 1.1308302 -1.2249942 -0.45725864
1.4630579 0.67990154 -0.61632705 0.89868844 0.28876513 -1.0043908 -1.083726 -2.1251934
1.0456822 2.0636942 0.95401293 0.75650513 1.3073342 1.2910231 -0.4711802 0.88527817
1.6424222 -0.65934676 0.15904754 0.4059745 0.15474632 1.44752 -0.29906437 0.34336036
1.0210016 -1.3856776 1.1166549 0.16892 0.919978 1.2197095 -0.1295576 1.1122167
1.4549574 -0.4540382 1.2488949 0.73428017 -0.27682394 -1.1791638 0.1966465 0.18469465
0.43999538 0.8232387 -1.5720105 0.031607956 0.42087558 -0.07449392 0.81341255 -0.061761715
-1.0403554 0.5650961 0.86465305 -1.0030737 0.6784187 0.1116706 -1.2877357 0.5543856
-1.0598426 1.4691466 -1.2448386 1.1681353 2.2588632 -0.47470385 -1.7469985 0.2753373
1.1611202 -0.16432725 -1.0159171 -1.3874896 0.34488732 -0.06745432 0.46375984 0.9770513
-0.9773539 -1.6772515 -2.1649346 -1.5179572 -0.28141636 0.804985 0.045235876 -0.7505752
0.98319316 0.36745775 -1.1950748 0.33561337 1.3917978 -0.5010354 0.43200472 0.43653905
-1.5769222 -1.2771194 1.4214153 0.395178 -0.4659804 -1.1616563 -0.11395348 -1.0277114
-0.46254328 -1.3368019 0.9767359 0.6117033 -1.1954676 -2.0914164 -0.4609461 -1.2118539
1.1013719 1.4796047 0.13220552 2.2790716 1.6004442 -0.104181744 0.98836356 0.3555952
-0.2583208 -0.5721006 -1.2075195 -0.651342 1.4415609 -0.4583725 1.0856999 0.4399602
-0.3637902 -0.72346586 -0.1939062 0.9393338 0.17077829 1.1925721 0.8548812 0.70412296
-0.4433652 -0.7852533 -0.028421823 -0.15028101 0.1825429 -0.77618396 0.5104836 0.22181942
-0.016992955 1.5868601 0.43708587 -2.3071108 0.10924445 -1.0954905 -0.6531927 -0.14321381
0.018579457 -0.4076793 -0.30155072 -0.8871265 -0.8300665 0.5019832 -0.3459704 0.57151306
-0.23223148 -2.1244347 -1.5132254 -0.8620355 1.1056229 0.9158202 -0.9635591 0.82123756
0.42921478 0.2029613 0.8878117 -1.6186848 -0.69279546 1.1739353 1.1833988 -1.1814538
1.608045 -0.74692816 -0.79232055 0.98095137 0.5872808 0.30212793 1.3913519 -0.69867563
-0.7206494 0.25248167 -1.4022005 -0.035529617 -0.17957596 -0.21505328 0.83479303 0.29726797
-1.194138 -0.2760243 1.2145851 -0.9883089 1.4861677 0.12707655 1.9536084 -0.82326466
0.3464448 0.7159035 -0.39158225 0.50927883 -1.896431 -1.1927012 -0.28922603 0.5987675
0.24871875 -0.45825112 1.3834567 1.9947726 0.07840108 -2.6092403 0.8964876 0.25000113

diffmodel.diffusion_embedding.projection1.weight f4 [64, 64]
00000000: 18a9 c4bc 705e 3dbd a03f 2b3d 74df 7f3d
00000010: 9a7c e03d 7e13 fe3d 7c2e 7fbd be30 b4bd
00000020: 9ce5 e23d c0ea 19bb 7028 023d 5067 983d
00000030: 1452 42bd a6cf cdbd 0036 693a 782d cebc
00000040: 16dd d93d 009d 5a3c 0058 c83d 6ea3 ab3d
00000050: d402 793d d8ab 98bd c871 fe3c 28dc 213d
00000060: 6825 cc3c d8c3 96bd 7008 12bc fcdb b93d
00000070: a0ad 873d c861 f33c 94a6 61bd d80c 823c
00000080: c484 a93d dc51 9ebd 0012 e33c 4818 a63c
00000090: 8e18 fe3d 421a a1bd a828 bebc 2ed6 f53d
000000a0: 563b e03d 94c6 2abd ecb5 cf3d a4a0 e73d
000000b0: 7241 a2bd 5413 7abd b0ae 6e3c 4cac f8bd
000000c0: 8002 2d3d 0060 80b9 047b e0bd c4d1 6e3d
000000d0: f09e 3b3d 4680 ff3d c8f6 a6bd c0b0 cd3d
000000e0: 08ff 8cbc 187d 793d c0a8 4c3b 9094 adbc
000000f0: 8440 413d 00dd 88bc 5082 d33d 10b8 bbbd
00000100: 801c 7b3b 40bb 07bb 80d0 ccbc 0ab5 f2bd
00000110: 78d6 8dbc 78d9 debd fee7 bebd 800d 203b
00000120: c821 743d 1c4c 17bd 12cc e9bd 28b5 b3bd
00000130: 5052 4d3c 20a3 d6bb 1c02 97bd 2e8a c23d
00000140: a42c c73d 3a63 f2bd 8007 f3bc 3691 a3bd
00000150: 3237 80bd f691 c13d a647 c03d 16ba b03d
00000160: 9877 893d 641d bc3d 16c5 bf3d 80dd 91bc
00000170: e41c 423d a2b0 ff3d f4e1 493d 207b 993d
00000180: c089 623d a064 1b3c 34a2 87bd 604b 94bd
00000190: e8b8 3abd dc95 8d3d 047d c83d 6409 c2bd
000001a0: f610 f9bd 7445 f03d 1c90 72bd 8094 eb3c
000001b0: 4426 313d 3819 823c 2043 ff3d e409 9f3d
000001c0: a2c3 b0bd 2a91 fcbd 38fc 7e3d f859 abbd
000001d0: 5475 42bd 9a82 8a3d 38ae 9e3c b082 fbbd
000001e0: 000d d53d 0c87 1c3d ba48 e3bd 785d 113d
000001f0: c464 f0bd b8af cebc 3e01 efbd a81d 01bd
00000200: 749a c2bd 009c e0bd e0d0 df3c 28bc c53c
00000210: c4b5 403d 34b0 123d 9c98 843d 78b9 a7bd
00000220: faaf cf3d 4a29 ab3d 3052 f2bc 48f8 8dbd
00000230: 5a7e bcbd ba86 b5bd 0044 f4bc 708a febc
00000240: c833 4fbd 7487 37bd c048 1bbb 9445 2a3d
00000250: 94f4 d0bd 80f0 783d c4ab eb3d 7c71 29bd
00000260: 8459 083d 8a3f a83d 4a15 c73d aea0 8dbd
00000270: 427c 94bd 7c0a 11bd 1056 1c3d a601 bfbd
00000280: 181b 083d 80e2 daba a025 aa3d dc88 16bd
00000290: 34d0 d73d c06d fdbd 00e5 f2bd 007e 0dba
000002a0: 06da b13d e884 0bbd 98a6 fc3c 4c67 67bd
000002b0: 80d8 55bc 148c 8c3d 2a85 873d 6891 713d
000002c0: 24e6 743d d056 dcbd 5e87 91bd 4003 123b
000002d0: e09a edbc e04d c83b 7aec a43d 0836 fabc
000002e0: b858 a43d 903d e2bc 544f db3d 182c 123d
000002f0: a68b f43d ea32 e23d b818 e6bd 9a5c c1bd
00000300: 88b0 14bd f051 dfbd ac0d 183d 809f b23c
00000310: 0c05 8abd 1830 dc3d 5ae7 bdbd e82d 75bd
00000320: 1e2f b83d 104c de3d d45e 3e3d 7299 853d
00000330: c07c 4ebc 943f a6bd da26 98bd d896 653d
00000340: 2208 bebd ce4c 8bbd d871 48bd a04b 55bc
00000350: 06b2 b6bd e409 68bd 5a8c 8cbd 8840 adbd
00000360: 4c60 6d3d 0cc1 0c3d a6ac c9bd 625c ddbd
00000370: 8ec2 883d c483 3dbd c4b1 ad3d b4b4 79bd
00000380: 7a64 88bd 6a31 d4bd 0c41 263d 3a77 95bd
00000390: 944f b8bd 58c4 c83c 7e18 923d e896 883c
000003a0: 5864 ba3d bcc8 48bd 489f fe3c bee0 fbbd
000003b0: c45f fc3d 208b 12bc c843 6b3d d427 f5bd
000003c0: 94a8 2abd 5871 be3d ce40 bb3d 0089 fb3a
000003d0: fa3f e3bd cc42 183d 20f4 85bc b485 f7bd
000003e0: 7851 d0bc 02fd ce3d f84a 8c3d da1d b43d
000003f0: b00d a53c 4e0c c83d 987c 07bd beb2 ea3d
-0.024006411 -0.04623264 0.041808724 0.06246896 0.10961266 0.124060616 -0.06230019 -0.08798359
0.11078951 -0.002348587 0.031776845 0.0744158 -0.047441557 -0.100493714 0.0008896291 -0.025168166
0.10637872 0.013343096 0.0978241 0.08380781 0.060793713 -0.074546516 0.031060115 0.039516598
0.02492018 -0.07361573 -0.0089131445 0.09075162 0.06624913 0.029709712 -0.055090502 0.015875265
0.08277276 -0.07730457 0.027718544 0.02027525 0.12407027 -0.078663364 -0.023212746 0.12003742
0.109488174 -0.041693285 0.10142121 0.11309937 -0.07922639 -0.06105359 0.014568016 -0.12142238
0.042238712 -0.00024485588 -0.10960963 0.058305517 0.04580587 0.12475638 -0.081525385 0.10043478
-0.017211452 0.060910314 0.0031228513 -0.021189004 0.047180668 -0.016706944 0.103275895 -0.091659665
0.0038316548 -0.0020710975 -0.025001764 -0.11850937 -0.01731418 -0.108813226 -0.09321593 0.002442211
0.05960253 -0.036937818 -0.114158764 -0.08774787 0.012531832 -0.0065502077 -0.07373449 0.09499012
0.097253114 -0.11835332 -0.029666662 -0.07986681 -0.06260528 0.09451668 0.09388666 0.08629243
0.06712264 0.09185293 0.09363763 -0.017805815 0.047390833 0.12484862 0.04928775 0.07494187
0.05530715 0.00948444 -0.06622735 -0.07240939 -0.045586497 0.06913349 0.0978947 -0.09474447
-0.12161438 0.11731997 -0.059219465 0.028757334 0.043249384 0.015881166 0.12463975 0.07765558
-0.08631064 -0.12332375 0.062252253 -0.083667696 -0.047475174 0.067631915 0.019370183 -0.12280786
0.1040287 0.03821473 -0.11097856 0.03548953 -0.117379695 -0.025230274 -0.11670159 -0.031522423
-0.09502116 -0.10967255 0.027321279 0.024137571 0.047048345 0.03581257 0.064744204 -0.08189672
0.10140987 0.08357485 -0.029580206 -0.069321215 -0.09203787 -0.08863588 -0.029817581 -0.031071872
-0.05058649 -0.044806913 -0.0023694485 0.04157026 -0.102028996 0.060776234 0.11507371 -0.041367993
0.033288494 0.08215244 0.097208574 -0.06915413 -0.07250263 -0.03541039 0.038168013 -0.09326486
0.033228964 -0.0016699582 0.08307958 -0.036751613 0.105377585 -0.12374449 -0.118600845 -0.00053974986
0.08684163 -0.034062296 0.030841157 -0.056494996 -0.013052106 0.06862655 0.06617196 0.05897656
0.05978979 -0.10758746 -0.07105897 0.002227977 -0.029004514 0.006112799 0.08052917 -0.030543342
0.08024734 -0.027617246 0.1070849 0.035686582 0.11940698 0.11044867 -0.112351835 -0.094414905
-0.036301166 -0.109043 0.037122414 0.021804571 -0.06739244 0.10751361 -0.092726424 -0.059858233
0.08993362 0.108543515 0.046477154 0.06523408 -0.012602985 -0.08117595 -0.07429285 0.05605206
-0.09278895 -0.06801759 -0.048936695 -0.013018519 -0.08920674 -0.056650057 -0.068627074 -0.08459574
0.057953164 0.03436379 -0.09847383 -0.10808636 0.06677733 -0.04626824 0.08481172 -0.060963348
-0.066597894 -0.103609875 0.040589377 -0.07298131 -0.08999553 0.024507686 0.07133578 0.01667352
0.0910117 -0.04901956 0.03108181 -0.122987255 0.12322953 -0.008944303 0.057437688 -0.11970487
-0.041664675 0.09298962 0.0914322 0.001919061 -0.11096187 0.037173077 -0.01635176 -0.12086049
-0.025429472 0.10106851 0.06850237 0.08794756 0.020148128 0.09767972 -0.033077806 0.114598736

diffmodel.diffusion_embedding.projection1.bias f4 [64]
00000000: 788c a73d b4d3 9c3d 18fa 64bd 0682 acbd
00000010: 5800 50bd 9a22 d8bd 1821 b73d 3237 f13d
00000020: c89a 1b3d acea 38bd 58e6 5bbd 7266 ef3d
00000030: 8e7e ffbd a095 14bc f41d 0e3d de65 bcbd
00000040: 80ce 963c d409 dcbd c248 c43d 3c3c d23d
00000050: a849 c43d 201b abbc 38f0 a13d c0d2 513b
00000060: 680d ae3c 801c b83b 70f8 0d3c 4cb1 efbd
00000070: 4c6a 88bd 9c03 993d 1084 b33c 1e31 d6bd
00000080: 48ab fbbc 4c81 333d d874 b6bd c0f0 d83b
00000090: bc3f 683d 787f 713d c016 2e3d d0d0 c3bc
000000a0: 20d2 39bd 0027 bd3b f822 7c3d b8c5 34bd
000000b0: 1651 c8bd 7087 673d 4c97 dcbd c09a 5e3b
000000c0: f079 80bc 9e77 a73d a8c7 f2bd 60d7 eb3c
000000d0: 70e9 b73c a632 fc3d 7073 123c 544d efbd
000000e0: a0b9 f93d 8c8e 18bd 2847 32bd 0a47 d6bd
000000f0: a872 933c 285c e7bd 8a2f d4bd 90b8 e2bc
0.08181089 0.07657567 -0.05590257 -0.084232375 -0.050781578 -0.10553475 0.08941859 0.11778106
0.037989408 -0.045145676 -0.05368647 0.11689462 -0.1247531 -0.0090688765 0.034696534 -0.09199117
0.018409014 -0.10744062 0.0958419 0.10265395 0.09584361 -0.020886958 0.07907146 0.0032016486
0.021246627 0.005618632 0.008665189 -0.117037386 -0.066608995 0.074713916 0.021913558 -0.10458587
-0.030721322 0.04382448 -0.08909005 0.0066204965 0.056701407 0.058959454 0.042502165 -0.02390328
-0.045366406 0.0057724714 0.061556786 -0.04413387 -0.09781091 0.056525648 -0.10771045 0.003396675
-0.015683144 0.08177112 -0.11854488 0.028789222 0.022450179 0.12314348 0.008938655 -0.11684671
0.12193608 -0.03724532 -0.04352489 -0.104627684 0.017999008 -0.11296874 -0.1036063 -0.027675897

diffmodel.diffusion_embedding.projection2.weight f4 [64, 64]
00000000: 7434 48bd 7622 d53d 8009 fabb 9092 5f3d
00000010: e413 923d a29c 93bd 42b5 b83d 2cf5 923d
00000020: 1828 dc3c 4058 90bc 34fc 55bd b834 fa3d
00000030: 3a54 bc3d d42c b0bd 60d1 653d 5aab df3d
00000040: a072 11bc fcdc ec3d b233 bdbd a418 ff3d
00000050: f6fd efbd 5c66 d6bd c86a adbc 080f bcbc
00000060: da6d fcbd d447 a1bd ae2c cdbd 2892 793d
00000070: c220 e43d f098 efbd 704d 3c3c 84a5 2fbd
00000080: e075 0dbc ac20 5d3d cc8d 203d 647c 1f3d
00000090: 18b6 fdbd a4b1 6a3d d0ba b1bd ccf1 303d
000000a0: b227 bc3d 506c 20bc d0fe fd3d 801c 3f3c
000000b0: f8bb 703d 10a8 0a3c 1012 d03d 3e49 b1bd
000000c0: bcf3 3fbd a0c0 c5bd 30a4 153d f41c 05bd
000000d0: 6069 86bb 2c19 e1bd 78ce 83bd 8c26 b5bd
000000e0: 30cf aebd fc48 db3d 98c2 a5bc f8a2 53bd
000000f0: e472 10bd 108d eabc e0f5 3cbd 30d2 8e3c
00000100: 189e f43d 5880 ed3c 2c8e c4bd aaaa 90bd
00000110: 2896 e53d 14bb 5d3d 8007 f93c f84a 10bd
00000120: a291 fdbd b242 c03d 146b fe3d d2b8 8e3d
00000130: 3481 ffbd 284d f7bc 18db b33d f8c0 ecbc
00000140: 80f6 e0ba 0017 883a 3454 abbd ca1a afbd
00000150: 645e 68bd d8b8 3abd 8846 b23d 5837 f6bc
00000160: e46b 10bd 0014 a2ba 1665 bb3d c068 9cbb
00000170: e03e e03d 805e dbbc 006a bc3b 48d6 293d
00000180: ba3e e9bd 40d9 0a3d c0ea 183d eccb 12bd
00000190: cae6 893d 94b4 3f3d e4d2 753d e0cf 0cbc
000001a0: e047 a83b 06d2 8c3d f4bd 24bd b619 b03d
000001b0: 2a24 9abd 9e23 a83d 727e fabd f083 973c
000001c0: 780d 1b3d 06ce dd3d b046 d83c 5a69 d8bd
000001d0: 0c80 56bd e073 e33b a02c 7b3c fae4 bcbd
000001e0: a032 b7bd 0098 26b9 0010 bb38 4440 4c3d
000001f0: 5a2a c63d 3836 3b3d a2a7 c23d 70af 6abc
00000200: 2c58 c53d 180f 3b3d 2823 c83d 288d 6d3d
00000210: 4ef5 8f3d 285b f9bc 0231 833d f027 7fbc
00000220: debd e3bd 60bd 143d bc30 a6bd 9aec f2bd
00000230: 5cf9 0fbd 7082 473c 38d7 b7bd 2c3c 58bd
00000240: 404d e13b 0079 133b 44b6 c13d f0af 8cbc
00000250: 326b d43d be95 9a3d b84c 8c3d 2042 273c
00000260: 5055 6abd 70f1 a23d c80c d7bd 14cf 5bbd
00000270: a84f 923d 50a3 83bc c021 f6bd c233 afbd
00000280: f011 2c3d 8677 c83d 80fe e33d e233 ccbd
00000290: 9ac3 a7bd 001e e43b 760c eb3d 62d5 b83d
000002a0: 88d2 86bc 5495 45bd 68be e63c a015 963d
000002b0: 0e02 f9bd e0f8 333c 70e1 903c ac0b 503d
000002c0: e831 cc3c 8ce1 55bd c4e3 30bd 3020 c5bc
000002d0: 9879 4dbd 0008 88bd 5071 203c a095 d33c
000002e0: c8df cfbc 00ea 02ba 547a 3c3d 2002 363c
000002f0: d4c1 f63d 50f5 8d3c 407c a5bb c44b cfbd
00000300: 0040 d8bb 64a2 d2bd b255 fc3d 7aee af3d
00000310: 2897 9bbd 00d7 bb3a 34f0 43bd f489 da3d
00000320: b896 bb3c 9097 eabc 6ac1 c33d 80ee 823c
00000330: 22cf c4bd 9ca7 0b3d b0d2 64bc 42f7 b8bd
00000340: c0db c03d 9088 103d b490 ebbd 9674 febd
00000350: b03f f8bc 2822 a6bd acdf 073d 723b a93d
00000360: 906b c33c f04a 9b3c 1c64 28bd 3cf9 bcbd
00000370: f689 d1bd fcd7 74bd 3cc2 2cbd bc2a 99bd
00000380: bcd7 bcbd 5626 dabd 801a 4d3c 4809 f03d
00000390: 3c40 09bd 98c8 74bd 4cea a43d 2ce0 56bd
000003a0: fc49 84bd 8cac 17bd e4ef 1e3d a45a 62bd
000003b0: 722b 98bd 6e6e 993d c8ab ecbc 7813 6dbd
000003c0: 0836 0e3d f03f ccbd c41c c83d 701f a4bc
000003d0: 58d5 b03c f023 32bc 66ce fe3d 00d6 abbc
000003e0: 74b9 5fbd 122b eebd b8e5 ed3c fc98 d13d
000003f0: 004d f8bc 90a5 01bd e021 64bd e202 92bd
-0.04887815 0.104069635 -0.007630527 0.054583132 0.071327 -0.0720761 0.09018947 0.07175669
0.026874587 -0.017620206 -0.052242473 0.122170866 0.091957524 -0.086023 0.05610788 0.109213546
-0.008877426 0.11565587 -0.09238376 0.12455872 -0.11718361 -0.10468742 -0.021169081 -0.022956386
-0.1232564 -0.07875028 -0.100182876 0.0609304 0.111390606 -0.116990924 0.011493072 -0.042882457
-0.008634061 0.053986236 0.039197728 0.038936988 -0.12388247 0.057298318 -0.0867821 0.043199345
0.09187259 -0.009791449 0.12402117 0.01166451 0.05877301 0.008462921 0.10159695 -0.08656548
-0.046863303 -0.09655881 0.036533535 -0.032498315 -0.004101917 -0.10991129 -0.06435865 -0.08845243
-0.08535612 0.1070728 -0.020234391 -0.05166909 -0.03526582 -0.028631717 -0.046132922 0.01743421
0.119442165 0.028991863 -0.0959743 -0.070638016 0.11210281 0.05413349 0.030399084 -0.035227746
-0.12381293 0.09387721 0.12422767 0.069688454 -0.124758154 -0.030188158 0.08782023 -0.028900608
-0.0017163306 0.0010382831 -0.0836567 -0.085500315 -0.056730643 -0.045586437 0.08704859 -0.030055687
-0.035259143 -0.001236558 0.0915014 -0.0047732294 0.109494925 -0.02677846 0.005749941 0.04146412
-0.11388917 0.033898592 0.03733325 -0.035839006 0.06733473 0.046803072 0.060015574 -0.008594483
0.0051355213 0.06875996 -0.040220216 0.08598654 -0.07526429 0.082099184 -0.12231149 0.01849553
0.03785464 0.108303115 0.026400894 -0.10566969 -0.05236821 0.0069413036 0.015330464 -0.09223361
-0.08945203 -0.00015887618 8.919835e-05 0.049865976 0.09676047 0.045706004 0.0950463 -0.014324054
0.09635958 0.04566869 0.097723305 0.057995945 0.0702921 -0.030438974 0.06405832 -0.015573487
-0.11120199 0.036313415 -0.08114764 -0.118615344 -0.035149917 0.012177095 -0.089765966 -0.05279176
0.006875664 0.0022502542 0.094585925 -0.017173737 0.103720084 0.07548092 0.068505704 0.0102086365
-0.057210267 0.07956207 -0.10500485 -0.053664282 0.071440995 -0.016069084 -0.12018156 -0.08554794
0.042009294 0.09788422 0.111325264 -0.09970833 -0.08191605 0.006961584 0.11476986 0.090250745
-0.016457811 -0.048238114 0.028166965 0.073283434 -0.12158595 0.010984629 0.017685622 0.05079238
0.02492614 -0.05221705 -0.043185964 -0.0240632 -0.05016479 -0.06642151 0.009792641 0.025828183
-0.025375262 -0.0004993975 0.0460151 0.011108905 0.120486885 0.017328888 -0.005050212 -0.10121873
-0.0065994263 -0.1028488 0.123210326 0.08590408 -0.0759719 0.0014331043 -0.047836497 0.10670844
0.022899017 -0.028636724 0.09558375 0.015982866 -0.0960982 0.03409539 -0.013966247 -0.09031536
0.09416914 0.035286486 -0.11502209 -0.12424581 -0.030303806 -0.081119835 0.033172294 0.082632914
0.023855 0.018956631 -0.041111097 -0.09227225 -0.10231392 -0.05977629 -0.042177424 -0.07478854
-0.092208356 -0.10651843 0.012518525 0.1172052 -0.033508524 -0.059761614 0.08052501 -0.05245988
-0.06459424 -0.037029788 0.038802996 -0.055262223 -0.074301615 0.07491766 -0.028890505 -0.057879895
0.034719497 -0.099731326 0.097711116 -0.020034522 0.021586105 -0.010872826 0.12441711 -0.020976067
-0.05462022 -0.11629309 0.029040202 0.102342576 -0.030310154 -0.031652033 -0.05569637 -0.07129456

diffmodel.diffusion_embedding.projection2.bias f4 [64]
00000000: 0025 39bb 2210 e23d 2e92 e73d 602c 9fbb
00000010: 829b e03d d0d7 173c 80e8 08bc 60f0 93bd
00000020: 38fa 53bd 4001 b3bb 801f fa3c f049 833d
00000030: f012 063c 48c6 29bd e823 fe3c c0c4 9b3c
00000040: 742d 773d 46d9 af3d a8aa 023d ac18 fbbd
00000050: 184d 1a3d 0a48 dc3d 6e1f b7bd 9e6a e9bd
00000060: c066 7fbb a439 e93d da0a edbd fc14 51bd
00000070: f667 e6bd 749a fe3d 0017 80bd 0038 d3bb
00000080: 6c21 983d 5a86 c83d 3462 b0bd 102e 2ebc
00000090: 3a70 a83d 749e f3bd 186a 663d ba35 febd
000000a0: a080 463d 90d7 1c3d 80e8 f73d 4cc3 e33d
000000b0: 4887 b5bc 10bb 69bd 44c0 6c3d 3e8b f23d
000000c0: 8819 083d c0b6 8cbc 7881 fabd 8659 a9bd
000000d0: aad4 c63d 0089 87ba 38ca e93d 4e96 fd3d
000000e0: 963e debd b08d 813c 80c6 eabb 2a2b fcbd
000000f0: 10bc 403c 5089 df3d 56ce e6bd c24c 9c3d
-0.0028250813 0.11038233 0.113071784 -0.004857585 0.10967161 0.009267762 -0.008356214 -0.07223582
-0.0517523 -0.0054627955 0.030532598 0.06410587 0.008183226 -0.04144886 0.03102298 0.019014716
0.06034608 0.085863635 0.03190103 -0.12260565 0.03767118 0.10755928 -0.089415416 -0.11397289
-0.0038971156 0.11387947 -0.115743354 -0.051045403 -0.11250298 0.12431803 -0.06254387 -0.0064458847
0.0742825 0.097912505 -0.08612481 -0.010631099 0.082245305 -0.11895457 0.056253523 -0.12412591
0.04846251 0.038291514 0.12104893 0.11121234 -0.022159234 -0.057063162 0.057800546 0.118429646
0.033227473 -0.017176986 -0.122317255 -0.08269028 0.09708531 -0.0010340512 0.11415523 0.12382184
-0.10851781 0.015814632 -0.0071647763 -0.123129204 0.011763588 0.10914862 -0.11269824 0.07631828

diffmodel.input_projection.weight f4 [32, 2, 1]
00000000: 76c2 dcbd c699 b73f fbc2 2bbc 0495 39bf
00000010: d45a b1bf 2d46 393e 3309 9abf d8a3 803f
00000020: bf5b 8c3e 249d 28bf 3e83 39bf 7633 a2bf
00000030: 161d abbb 8eb9 e23f 582a 0f3f 0ad5 0340
00000040: 7a8a 8abf 9ea4 83be 8ad2 173f b364 71bf
00000050: 3b95 e63e ba84 dbbe 2988 a9be 679d 1ebf
00000060: cfaf 75be 41c4 b53f 715a 97bf e1be 0d3f
00000070: 7895 e43f fa44 103f 20dc 3b3f 14f9 5ebf
00000080: 8ef3 2dbf 0013 e3be a953 023c 952a a6bf
00000090: aaa5 2e3f 7d0f 953f 7dd4 7bbd 7158 613f
000000a0: b8ff 84bf 7db7 263f 04a1 c9bf bb18 25bf
000000b0: d302 213e 0690 d0be 1dd6 82bf 5910 2fbe
000000c0: 3ede 86bf 4c08 bebe 7b19 a5be 1ee1 163d
000000d0: 4d2f 61bf d22d 1040 7057 02bf 2754 1d3e
000000e0: 72d2 82bf 0d1f 8e3e 7ab6 4bbe 3c60 48bf
000000f0: bbe9 b03e 0784 433f 3813 93bf 869a ecbe
-0.10779278 1.4343803 -0.010483499 -0.72493005 -1.3855844 0.18093176 -1.2034057 1.0050001
0.27413747 -0.6586478 -0.72465885 -1.2671955 -0.005221973 1.7712877 0.55923986 2.0598779
-1.082351 -0.2571153 0.5930563 -0.9429428 0.4503573 -0.428747 -0.33111694 -0.61958927
-0.23992847 1.4200517 -1.1824476 0.55369383 1.7858114 0.5635525 0.7338276 -0.87098813
-0.6794976 -0.44350433 0.007954516 -1.2981745 0.68221533 1.1645352 -0.06148194 0.88025576
-1.0390539 0.6512373 -1.5752263 -0.6449086 0.15723734 -0.4073488 -1.0221592 -0.1709608
-1.0536573 -0.37115705 -0.32246003 0.036835782 -0.879628 2.2527966 -0.5091467 0.15364133
-1.0220473 0.27758065 -0.19893828 -0.7827184 0.34553322 0.7637333 -1.149024 -0.46211642

diffmodel.input_projection.bias f4 [32]
00000000: e8f4 d6bd 4e7e 2abf 0145 26bf cbef 303f
00000010: 0036 893c f07c 3abe d6be 853e 8849 443e
00000020: ca5a bdbe 7f6d 23bf 7a7c 19bf cb67 15bf
00000030: 081a 9abd 7a9a 893e 1535 2c3f d428 4bbe
00000040: a483 dbbe f244 8e3e c025 b8bc 76e7 fcbe
00000050: 1ca7 773e 1ef2 14bf 1f88 173f 7ef6 04bf
00000060: 88ab 01bf 745e 23be 3060 113d 0c8e 553e
00000070: 6ef8 30bf a011 213d 56ad 19bf eeb7 c43e
-0.10495931 -0.66598976 -0.6494904 0.69115895 0.016749382 -0.18211722 0.2612216 0.19168675
-0.3698333 -0.6383895 -0.5995556 -0.583615 -0.07524496 0.2687567 0.67268497 -0.19839793
-0.4287387 0.27786976 -0.022478938 -0.4939534 0.24184841 -0.5818194 0.5919208 -0.5193862
-0.5065236 -0.15954 0.035492122 0.20854968 -0.69129074 0.03932345 -0.60030115 0.38421577

diffmodel.output_projection1.weight f4 [32, 32, 1]
00000000: 4f71 8e3e 0b09 13be 990a 66bd e5dd 983d
00000010: 5c06 ed3d 6ac4 d53e c720 f03b 81c9 53be
00000020: 88c7 ed3e 31b5 93be 2fc7 0b3f 05d1 59bd
00000030: fbd2 f6b9 e589 d1be 942e a3bd a188 8dbd
00000040: f617 083f 4697 cbbc 8f1d 3ebe 3b11 04be
00000050: c45d b63d f4bb 633e 908a ba3d fc20 a13e
00000060: 7c82 ed3d d6fd 97be 55b1 623e 1edb eb3d
00000070: 75c8 613d cffe 7a3e 5cef 2b3e ee34 26bd
00000080: dab7 aebe 0ec0 473e 671d 99bc e678 cabe
00000090: 1748 c83c 788d 973e 893c e3be 8300 a03d
000000a0: 6628 acbe 814a e3be f8c3 99bd cfe5 12be
000000b0: 0553 eabd 2e67 fcbd 809e a2bc 6f29 8cbd
000000c0: 6e32 a8bb acc6 f5bd 382e 4bbe e14b bbbe
000000d0: 120e 48be e3a4 163f 0aed f9be 7e04 863d
000000e0: 4194 4e3d 1e28 e73e 8b0a f4bd 35c7 7b3e
000000f0: e704 bf3e d152 1d3e 2600 793e f691 58be
00000100: 7ce2 7c3e b452 d83d 5146 8fbe c0b9 ee3e
00000110: 371b 75bf ba8a d4bd 040f f9be 2a0d 81be
00000120: e290 1d3e 6c52 d53d a7be 05bf 3b8f 8d3e
00000130: f61d 513e ae1f 0a3e a863 b5bd c8d4 de3e
00000140: c99b 86be 462c 363e 3ba0 1abe c735 a5be
00000150: 8a62 01be c916 4dbe f60c 763e 2e54 003f
00000160: ce6a b53e 82e1 663c d5dc 0d3d 52e3 6fbd
00000170: 6739 853e 9603 453c 26fa 8dbe 84cb bdbd
00000180: e33b 13bd c150 08bf a9b1 313d 57a6 78be
00000190: 6d77 963d 8f3f a63d eb67 343d a434 3dbe
000001a0: b2bb 5fbd b7a2 e73c 01fc 39bc b38c a9be
000001b0: a81b b53e 037b 153d 2844 c13e 4ce1 ce3c
000001c0: a4d2 0c3e 849b b5be 5490 033e cc10 11bf
000001d0: 834b b73e 2066 1cbe e6f2 0e3f 6597 89bc
000001e0: 3d16 92be ad08 223e 07a8 bc3e 9630 ac3e
000001f0: 315e c73d a5db 87bd 5f75 023e 36a1 513e
00000200: 8806 933c b8aa 8bbd cdd6 44be e429 9ebe
00000210: 0615 d9bd cdec c03d 3bee 7f3e 77a3 eb3e
00000220: b670 f23b a9bf e1be 59f5 d1be cf7a d83e
00000230: c1ab 1cbe 866b dcbc 59e7 a23e d659 c23e
00000240: e80f e8bb eaf5 a0be 69db a6be 0353 debd
00000250: 2328 673e 8bd5 6b3e 8105 7a3e c1cb 403e
00000260: 6a68 bd3c 86f0 0cbe 7d1a 8b3e a6cd 71be
00000270: 0d01 1d3e 4cf6 173d 0a5e 35b9 0ea8 713e
00000280: 6a23 40be f1dc 2c3d 698c d53e 8754 bd3d
00000290: ac33 0ebf 7af5 a1be 638c 45bf 764f 0ebd
000002a0: 624c 15bf 956a 223f 8a95 d23e 314f c2be
000002b0: e849 bfbd c09f 053e f0f7 173e df01 48be
000002c0: 406f 98bd 2daf f6bd 99e1 b3be 0199 133f
000002d0: 03bb 613e 7b8c 8c3e e35d a23e a039 62bd
000002e0: 454b ccbe 78c0 253e e7b9 20be 0662 19be
000002f0: 31a4 c7bc 176b d43c 7a79 01be 0dca 5fbe
00000300: d9e8 e83d c727 9c3e 0c9a 053e bade bdbe
00000310: c435 d73d 478f bfbe c566 923e c403 533e
00000320: 06b0 02bf 3d14 233d 2f9d e93e 75d0 ffbe
00000330: 9e8e 403e 2a61 463e 32e6 0b3e 5e3b b63e
00000340: 0cdd 08bf 5661 8cbe 5410 d53d b5b9 a73e
00000350: 7e0c e1bc 7d22 8b3e 6d35 e2bd 55af d2bc
00000360: 25b8 acbe 381a 1abe 556d 90be 5716 523f
00000370: d0f6 d3bd c3b7 e7be 55e2 75be 27e4 72bd
00000380: 9510 7abc cdf3 57bd 9898 023f 6fb2 0abf
00000390: 914f 5c3e 8621 823d 13d4 12be 913a 2f3c
000003a0: 938a d53e a9cb 7fbd 2703 3bbc b220 40bd
000003b0: bb7d e2bd 7b24 6cbd 9a47 e13e c76b 9d3e
000003c0: 7978 e13e 5cf1 103e 3a02 523d 6db8 8f3e
000003d0: 3fc4 cb3d be22 47be 50ec 59be a91f 043e
000003e0: 878b 153f 6ca7 c5be 4007 d63e bbc6 703e
000003f0: e589 1e3e 9357 9b3e 7e9e 5fbe 923d af3e
0.27820823 -0.14358918 -0.05616245 0.07464198 0.115734786 0.41751415 0.007328126 -0.20682336
0.46441293 -0.28849176 0.54600805 -0.053177852 -0.0004707797 -0.40925518 -0.079678684 -0.069108255
0.5316156 -0.024852406 -0.18565963 -0.12897198 0.08904603 0.22239667 0.0910846 0.31470478
0.115971535 -0.2968585 0.2213796 0.11516403 0.05512281 0.24511264 0.16790527 -0.04057782
-0.34124643 0.19506857 -0.018690778 -0.39545363 0.024448438 0.2960012 -0.44382122 0.078125976
-0.33624572 -0.4439278 -0.07508081 -0.14345478 -0.11441616 -0.123243675 -0.01985097 -0.0684384
-0.005132965 -0.12000784 -0.1984185 -0.3658133 -0.19536617 0.5884535 -0.4881366 0.065438256
0.050434355 0.45147794 -0.119160734 0.2458771 0.37308428 0.15363623 0.24316463 -0.2114943
0.24695772 0.10562649 -0.27983335 0.4662609 -0.9574465 -0.103780225 -0.4864427 -0.25205356
0.153873 0.10416111 -0.5224404 0.2764834 0.20421585 0.13488647 -0.088568985 0.43521714
-0.2629073 0.17790326 -0.15100186 -0.3226759 -0.12635246 -0.20028223 0.24028382 0.5012845
0.35433048 0.014091851 0.03463443 -0.0585664 0.26020357 0.012024781 -0.2772991 -0.09267333
-0.035945784 -0.5324822 0.04338232 -0.24282204 0.073469974 0.081175916 0.044044416 -0.18477112
-0.05462236 0.02827583 -0.011351586 -0.33115157 0.35372663 0.036494266 0.37747312 0.025253914
0.13752228 -0.35470212 0.12848026 -0.56666255 0.35799798 -0.15273333 0.55839384 -0.016795823
-0.2853259 0.15823622 0.36846945 0.33630818 0.097347625 -0.06633691 0.12740086 0.20471653
0.01794745 -0.068196714 -0.19222565 -0.30891335 -0.10599713 0.09420166 0.24993221 0.4602315
0.00739869 -0.44091538 -0.41007498 0.42281196 -0.15299894 -0.02690674 0.3181713 0.37959164
-0.0070819743 -0.31437618 -0.32589272 -0.10855677 0.22573905 0.23030679 0.24416162 0.18827726
0.023121078 -0.13763627 0.27168646 -0.23613605 0.15332432 0.03710012 -0.00017296537 0.23599264
-0.1876351 0.042202894 0.41708687 0.09244638 -0.55547595 -0.31632596 -0.7716734 -0.03474375
-0.58319676 0.6344388 0.41129714 -0.37951043 -0.093402684 0.13049221 0.14840674 -0.19531964
-0.07443094 -0.12045131 -0.35133055 0.5765534 0.22043996 0.27450928 0.31712255 -0.055230737
-0.39901176 0.16186702 -0.15695916 -0.14978799 -0.024370285 0.02592997 -0.12643996 -0.2185442
0.11372537 0.30499098 0.13047045 -0.3708399 0.10508302 -0.37414 0.28594032 0.20606905
-0.5104984 0.039814223 0.45627734 -0.49963728 0.18804404 0.19373003 0.13662031 0.3559217
-0.5346229 -0.2741801 0.10403505 0.3275887 -0.027471777 0.2717475 -0.110453464 -0.02571837
-0.3373424 -0.15049064 -0.28208414 0.8206534 -0.1034981 -0.45257387 -0.2401212 -0.059299614
-0.0152627425 -0.05272274 0.5101409 -0.5417852 0.21514727 0.0635405 -0.14338712 0.010695116
0.41707286 -0.062450085 -0.011414326 -0.04690618 -0.110591374 -0.057651978 0.4399994 0.3074629
0.44037226 0.14154571 0.051271655 0.28070393 0.0994954 -0.19446847 -0.21281552 0.12902702
0.58416027 -0.38604295 0.41802406 0.2351331 0.1548229 0.3034025 -0.21837804 0.34226662

diffmodel.output_projection1.bias f4 [32]
00000000: 3555 063e 2a61 983d 6636 e33d dee4 77bd
00000010: 603c dfbb 008d 1bbe 80e5 ba3c 0194 0c3e
00000020: 20d8 cdbc 5251 ec3d 2a80 18be 7038 163c
00000030: dbc6 233e 9eb5 9a3d 9594 003e be03 cd3d
00000040: 623a dd3d 40f9 27bb facd d9bd 01c8 17be
00000050: fb74 f0bd 8640 893d ef5b 2b3e c087 dbbc
00000060: ac44 1d3d 1c4c 433d ee7a f3bd 0a9e 8d3d
00000070: 400f 113b eea1 08be 64b4 18bd 3bfe acbd
0.13118441 0.074404076 0.1109436 -0.060521 -0.006812617 -0.15190506 0.022814512 0.13728334
-0.02512747 0.11538948 -0.1489264 0.009168729 0.15993826 0.07554172 0.1255668 0.100104794
0.10802151 -0.0025630742 -0.1063499 -0.14822389 -0.11741062 0.0670176 0.16734289 -0.02679813
0.03839557 0.047680005 -0.11888681 0.06914909 0.0022134334 -0.13343021 -0.03728141 -0.08446928

diffmodel.output_projection2.weight f4 [1, 32, 1]
00000000: 0000 0000 0000 0000 0000 0000 0000 0000
00000010: 0000 0000 0000 0000 0000 0000 0000 0000
00000020: 0000 0000 0000 0000 0000 0000 0000 0000
00000030: 0000 0000 0000 0000 0000 0000 0000 0000
00000040: 0000 0000 0000 0000 0000 0000 0000 0000
00000050: 0000 0000 0000 0000 0000 0000 0000 0000
00000060: 0000 0000 0000 0000 0000 0000 0000 0000
00000070: 0000 0000 0000 0000 0000 0000 0000 0000
0.0 0.0 0.0 0.0 0.0 0.0 0.0 0.0
0.0 0.0 0.0 0.0 0.0 0.0 0.0 0.0
0.0 0.0 0.0 0.0 0.0 0.0 0.0 0.0
0.0 0.0 0.0 0.0 0.0 0.0 0.0 0.0

diffmodel.residual_layers.0.diffusion_projection.weight f4 [32, 64]
00000000: 106d 603c 58e4 bfbd 9098 21bd b47c 463d
00000010: b8cc 30bd e8fd d7bc 18d1 5b3d 9cb2 023d
00000020: f8c4 56bd 7478 0e3d 9615 dabd 2e0e c1bd
00000030: 0420 d1bd e203 db3d 201e ad3b 544d 5e3d
00000040: ac08 763d 2011 933c 4851 4a3d 6829 bdbc
00000050: 061d aebd 2cec c8bd d4a9 f4bd 8049 cdba
00000060: 78f9 b2bc 540e 49bd 4ef6 bdbd 008a fcbc
00000070: 2ab7 f43d 5cfe 9a3d 6a78 bb3d a0c9 353c
00000080: 2057 a8bd 448b bdbd 36da da3d 7a24 a7bd
00000090: c00a 983c 9891 c4bd 7086 03bc e8c2 98bd
000000a0: 343d a2bd e012 913d 2009 bb3b 5c54 73bd
000000b0: c029 11bc 00ff 9abd 00a4 9cba 706e 663d
000000c0: 8eee bbbd 0a28 ddbd 1009 db3c 686a 723d
000000d0: 526f a53d f0d0 5c3c 802a f3ba 6c92 73bd
000000e0: 0c54 8c3d b6d4 ea3d 2ed4 84bd 284e c23c
000000f0: d4f9 fe3d 50a4 853c 40d0 34bb c015 58bb
00000100: 1a50 bdbd 7845 f93d bc4d a23d 9e42 edbd
00000110: 1ebe a83d f409 d6bd 6019 a8bb ae2b db3d
00000120: ea4c 893d 6677 fe3d 30a8 08bd 26f4 d4bd
00000130: 9276 e13d 88e0 8dbd 800f 6a3d 743e e3bd
00000140: ccde 48bd 8cf3 c5bd ca97 cdbd 944f d03d
00000150: b4c3 37bd e473 613d 9a1e b4bd b0e9 77bc
00000160: 7886 e8bc 609b 613d 00d0 1e39 40ea c23d
00000170: aefb a7bd 489d 9ebc c84f f9bc deb5 d3bd
00000180: e05c b4bd 0837 e83d 8ce2 9a3d acb3 ef3d
00000190: b85d 4bbd 780e bcbd f2fe cb3d 2a23 95bd
000001a0: fa7f f83d 72b6 be3d 34d5 943d 5a41 85bd
000001b0: 60cd 4c3c 406f 72bb 9c10 b3bd 521d cd3d
000001c0: 045c 923d 0258 a5bd e0bf 233d 3c1a 123d
000001d0: dcfb 783d 8cce 0abd ce92 a73d 1e2f a43d
000001e0: 70d2 7e3d 1047 56bd a260 dd3d d4a0 08bd
000001f0: d2fb bc3d 48cd dabc fc43 ef3d f476 a3bd
00000200: bc1c 533d d8fd 853c c059 583b 2e85 873d
00000210: 5023 0bbd 581f f43d 183f bebd 88bd 743d
00000220: 7c4a d13d 9a23 ec3d 54b0 0e3d 24da 4b3d
00000230: 8811 44bd b4de 16bd a025 963d c86a 11bd
00000240: 60d0 53bd e4a9 d13d e8c4 e5bd d827 efbc
00000250: 68d0 7abd 94d7 153d 5cdf e83d 90a2 1abd
00000260: f021 173c 606c c93d 9045 0ebc e0f2 f6bd
00000270: b20f 913d 60b6 cdbd c438 c83d 14a9 273d
00000280: 1858 bb3d c08c 64bc 4ce3 e8bd 3815 4abd
00000290: 8221 f23d e62e d43d 44b4 4bbd e4f1 413d
000002a0: 246e 9d3d c005 483b 64c2 ad3d f404 433d
000002b0: cc9f e9bd 7a0e 8d3d 86ab f23d a84f d63d
000002c0: 1cdd 063d 3a17 a83d e09c a73c c0d4 0f3d
000002d0: e096 bebd c242 9fbd c008 76bc be52 df3d
000002e0: 0441 e9bd c08e bcbb b244 d53d 4c72 72bd
000002f0: 50ce d93c f66b 80bd 0ceb 87bd eeef d3bd
00000300: c4d8 ef3d c624 b0bd a882 b6bc d09b ea3c
00000310: 18a6 5c3d 78be 24bd ba40 8b3d 603a e7bc
00000320: 38a0 ed3c a065 aa3b 086a eabd 6ae4 febd
00000330: 2cfd 0e3d 6655 9dbd 6820 263d 5865 1ebd
00000340: f8de a93c 68d8 b2bd ead8 fd3d 58ab c6bc
00000350: e64a 97bd f6c3 8abd bc59 fcbd d6c2 d83d
00000360: 304c a73d 4e60 c63d 349f f43d 4007 083c
00000370: 2cf8 073d d03b dbbc 6c63 243d 98ba f63d
00000380: f6b8 f2bd 1013 c43c 600b 973b e453 e5bd
00000390: 4051 3c3b 2cfa cbbd d089 363c d86e ff3d
000003a0: 0c54 f23d a4be 173d d43f d8bd 7081 a5bc
000003b0: b83b bb3d d2d3 dfbd 20ec bbbd ee45 efbd
000003c0: 20a6 ef3d 18d3 053d 90ff 38bd ba0e 893d
000003d0: f046 273d 5403 8abd f0df ab3c 3802 df3c
000003e0: ea04 d13d 3445 8fbd a4f3 66bd 1eaf 9e3d
000003f0: e034 96bd 78d2 d73c 2cec f53d 2402 383d
0.0136978775 -0.09369725 -0.039452136 0.04845877 -0.043163985 -0.02636619 0.053666204 0.031908616
-0.052433938 0.03478284 -0.106486484 -0.09426533 -0.102111846 0.106941 0.005283132 0.054272965
0.060066864 0.017952502 0.049393922 -0.023091033 -0.085016295 -0.09810671 -0.11946455 -0.0015662163
-0.021847472 -0.04908593 -0.092754945 -0.030827522 0.11948998 0.075680465 0.091538265 0.011095434
-0.08219743 -0.092550784 0.10686152 -0.08161254 0.018559813 -0.09598082 -0.008027658 -0.074590504
-0.0792183 0.07083678 0.005707875 -0.059406623 -0.008860052 -0.07568169 -0.0011950731 0.056257665
-0.0917636 -0.107986525 0.02673772 0.05918351 0.08077873 0.013477549 -0.0018552095 -0.05946581
0.06851968 0.11466353 -0.064857826 0.023718908 0.12449995 0.016313702 -0.0027589947 -0.0032971948
-0.09243794 0.12171453 0.07924983 -0.11584972 0.08239387 -0.10451117 -0.005129978 0.107016906
0.06704123 0.12425117 -0.03336352 -0.1039813 0.110089436 -0.069275916 0.05714369 -0.11095896
-0.0490406 -0.096655935 -0.10038717 0.10171428 -0.04486437 0.055042163 -0.08794899 -0.015131399
-0.028384432 0.055079818 0.0001514554 0.09517336 -0.08202301 -0.019362107 -0.03043355 -0.10337423
-0.08806777 0.113386214 0.07562742 0.117041916 -0.049649924 -0.09182447 0.09960736 -0.07282098
0.121337846 0.093121424 0.07267228 -0.065066054 0.012500137 -0.003699258 -0.08743402 0.10015358
0.07146457 -0.08073427 0.039977908 0.03566955 0.060787067 -0.033888385 0.08182298 0.080167994
0.062212408 -0.052313864 0.10809447 -0.033356503 0.092277184 -0.026709214 0.11682889 -0.07981673
0.051541075 0.016356394 0.003301248 0.06617199 -0.033969223 0.11920041 -0.09289378 0.059751064
0.10219285 0.11530228 0.03483613 0.049768582 -0.04786828 -0.03683348 0.07331395 -0.035502225
-0.051712394 0.10237482 -0.112191975 -0.029193804 -0.061233908 0.036582544 0.113707274 -0.037752688
0.0092244 0.09835124 -0.008683577 -0.120580435 0.07083072 -0.10044551 0.09776452 0.04093273
0.09147662 -0.013949573 -0.113714784 -0.049336642 0.11822797 0.10360508 -0.04973246 0.047349826
0.07687023 0.0030521005 0.08484343 0.047612146 -0.11407432 0.06887527 0.11849122 0.10464412
0.03292571 0.08207555 0.020460546 0.035115004 -0.09306121 -0.07776405 -0.015016735 0.10904454
-0.11389354 -0.005754322 0.10413493 -0.059191033 0.026587635 -0.06270592 -0.066366285 -0.10348497
0.11711267 -0.08600764 -0.022279099 0.02863875 0.053869337 -0.040220708 0.06799455 -0.028226078
0.029007062 0.005200103 -0.11446005 -0.1244591 0.034909412 -0.07682304 0.04055825 -0.038670868
0.020736203 -0.087326825 0.12394889 -0.024251625 -0.073873326 -0.06775658 -0.12321803 0.10584037
0.081688285 0.096863374 0.11944428 0.00830251 0.03319566 -0.02676192 0.04013388 0.12047309
-0.11851685 0.023934871 0.0046095103 -0.111976415 0.0028734952 -0.09959826 0.0111412555 0.12472314
0.11832437 0.037047043 -0.10559049 -0.020203322 0.0914225 -0.109290734 -0.09175897 -0.1168326
0.11701608 0.032672018 -0.0451656 0.06692262 0.040839136 -0.06738916 0.020980805 0.027222738
0.102060154 -0.06995621 -0.056384698 0.07748245 -0.07334304 0.026345477 0.12007937 0.044923916

diffmodel.residual_layers.0.diffusion_projection.bias f4 [32]
00000000: 3851 e53d 4c24 6d3d c018 4a3c 86b7 b4bd
00000010: e02a b93c 0c6d 4e3d 1eea ad3d ae1b 83bd
00000020: 4058 9a3b 008c 423a 5c5f 823d 1c90 fa3d
00000030: 9076 f63d a0d4 e23d 4e4b b43d 7c26 083d
00000040: 5007 dc3c 8c55 3c3d b05b ddbd c05c 183b
00000050: fc87 b43d 24a5 bc3d 98fa cc3d 604f 1bbd
00000060: 760a a73d 0e23 8b3d 42a4 88bd 28a3 20bd
00000070: 32f4 d03d 94d1 cf3d 5062 3abd 08b4 d83d
0.11197132 0.057895944 0.012335002 -0.08824067 0.022603452 0.050396964 0.0849192 -0.06401764
0.0047102273 0.00074213743 0.063658446 0.12234518 0.12034333 0.11075711 0.08803426 0.033239827
0.026858956 0.04598002 -0.10808504 0.0023248643 0.088149995 0.092111856 0.100087345 -0.037917495
0.08156292 0.067937955 -0.06671955 -0.039218098 0.102028266 0.10147396 -0.045503914 0.10581213

diffmodel.residual_layers.0.cond_projection.weight f4 [64, 81, 1]
00000000: b1ab 2e3c cb4d d63d 2456 203e 5f15 ef3d
00000010: b413 89be 421d 103d 0945 a2be 31a3 cdbd
00000020: f225 cd3d 03ef 3d3d 75bd f33e 1200 c93d
00000030: f3fa b53b a611 47bd b8db 823d 0578 553e
00000040: b2e5 a0bd 554f 2cbe 5e50 a1bd 0c96 6bbd
00000050: d6f5 783e 087c ad3c 6737 19be 84cc 0d3f
00000060: 2330 833d 4cb2 803d 02d8 88be 146d f83d
00000070: bd5b 10be 7c25 d5bd 553a b3bc 807d e33d
00000080: 99e5 473e 8146 40bd f80f c23d 7a72 d33d
00000090: 67ee c0bd 66f9 b6bd d4af 8cbe 7a94 883e
000000a0: 84c9 99bc d92f 103e 9451 d1be 7d4c 453e
000000b0: 197e 313e 49a7 88be ce05 54be de6e 5bbd
000000c0: 7c77 913c 1c1e 41bc 4345 5fbe 6011 acbd
000000d0: 2413 c5bd f628 7f3d 05cb 123d 2f25 7fbd
000000e0: 77e3 6a3d 9307 b2be 7e71 aabe 619a 0b3e
000000f0: 9374 89be 094b c1bc 6dca 9dbd 8758 8cbe
00000100: 9a23 63bd fdd6 74bd fc64 70bd a696 0bbe
00000110: d0f4 f63d f002 73be 925b c43c 61d9 443b
00000120: 7820 be3c d962 283e 442b 1e3e e4ee 713e
00000130: 6e6a 883e a844 333e 5580 4c3e 3733 bfbd
00000140: c285 633b d035 f13d 41da 823d cb4c b1bd
00000150: adf4 a03d 7141 55be 301c 7a3e fd36 5ebe
00000160: 3041 efbd bf3e 463e 8ea5 103e 7afc 3ebe
00000170: 3466 373c 6873 503e afcf 223e f8c6 ae3e
00000180: b5cb 81be 992e 15be 17f6 0a3e 65ba 97be
00000190: ecf2 09be 3422 13be 0ce6 f43d 13ca d43e
000001a0: cf62 eabd 8706 b1be 51c4 8b3e 58e0 e0bd
000001b0: 9ab4 943c 16d8 653e 426f 0dbe 9118 c43d
000001c0: 54e4 003e e462 5fbd 33ad 8a3e 5815 99bc
000001d0: 2292 10be f8b7 52bd 55cc ccbd 0e0b 963e
000001e0: 96f2 db3d ace4 9b3d 7399 3e3e d60a ccbd
000001f0: 6e4f 33bd 565c 7c3d 06c8 d7bb a8c0 2abd
00000200: 1358 99bd ded0 32bc ec36 1f3d 9344 dcbd
00000210: 1fbd 01bd d436 193e 2596 143d 7fda e03e
00000220: 4075 43bd d50d 4bbd 7603 473e 393e 7bbd
00000230: 6548 ddbd 7f9f 2f3d e278 c3bd 249f 12be
00000240: e5ea 853b bbad 253e c115 733e 22ca 79bd
00000250: 20b0 4f3e cedc 583d 5e1a 8abe c1f0 253e
00000260: f8d6 dbbc 8dc6 3e3e 259b 2d3e f701 453e
00000270: 60c7 75be c780 5abe 5f0e 973d 7449 bebe
00000280: ae78 99be ec95 073e 59fc 26bd aa3b d13d
00000290: a75e bc3d 1522 2cbe e630 1abd 3f19 173e
000002a0: 51bc 38be 33a9 403d 1b68 9d3e d4fc 82bd
000002b0: 266a 39bd bc41 4cbe a8c5 653d e861 f4bd
000002c0: 9c95 64bd ac83 72be a043 13be a072 afbd
000002d0: c433 07be 0dd4 3abe 8310 27bb 7205 073e
000002e0: 1e87 713a 6f27 6c3e 64d5 0ebc 7e87 f43d
000002f0: 1080 d53c a113 313e 6275 e23d 26f2 103e
00000300: 4cad d63c 796e b03d 91a0 213e 0053 883c
00000310: d9d7 23bd 66d4 94bd 1caf eebc 78a7 aabe
00000320: 5da8 84be b55d e53c 5c4f d0bd 12c9 aa3d
00000330: fc46 943c eb4b 19be 626f 023e 92a8 5eba
00000340: c90a febc cc80 f03d 8e48 ea3d ac68 70bc
00000350: 4b5f 213d 678f 03be 3512 ca3d dfc5 d83d
00000360: 4588 bfbe 2470 5e3e fa58 58be 0d7d 6a3e
00000370: 3600 dbbd 1223 853e 69eb cfbc def4 82be
00000380: 9aed 1bbe 5ddb af3e aad2 9abd cf32 673c
00000390: 7f33 8fbd c3ad 98bd d6b1 69bd 7515 f2bd
000003a0: fcaf 7abd 9482 143e 7bd4 85be 5dfe 7ebd
000003b0: cd5c 9a3d 05a2 cd3d 342d 8f3d d902 e33d
000003c0: 2ff1 623b 1b87 5f3e afed a3be 4fa2 d2be
000003d0: 3d7c ddbc 5cb3 2a3d 9da1 20be 4ca0 82be
000003e0: 6d1d 93be 975f 10be 0e79 8c3e 539e 873e
000003f0: 58b9 923e d96b 943e 8d6b 833e 28b1 8f3d
0.010661052 0.104640566 0.1565786 0.11673998 -0.26772845 0.035184152 -0.31693295 -0.10040892
0.10017003 0.046370517 0.47605482 0.098144665 0.005553597 -0.048600815 0.06389564 0.20846565
-0.07856311 -0.16827138 -0.07876657 -0.057516143 0.24312529 0.021177307 -0.1496254 0.5539019
0.06405666 0.062840074 -0.267273 0.1213018 -0.14097495 -0.1040754 -0.0218784 0.111079216
0.19521178 -0.046942238 0.09475702 0.10324569 -0.09420472 -0.08934288 -0.27477896 0.2667578
-0.018772848 0.14080752 -0.40882552 0.19267459 0.17333259 -0.26690128 -0.2070534 -0.053572528
0.01775717 -0.011786964 -0.21803765 -0.084017515 -0.096227914 0.062294923 0.035838146 -0.06229132
0.057345834 -0.34771404 -0.33289713 0.1363311 -0.26846752 -0.02359535 -0.07704625 -0.2741129
-0.055453874 -0.05977534 -0.058690056 -0.13631687 0.12058413 -0.2373159 0.023969445 0.0030036794
0.023208842 0.16443957 0.15446192 0.23626286 0.266437 0.17506659 0.1997083 -0.0933594
0.0034717177 0.11777842 0.06389285 -0.08657225 0.07859168 -0.20825745 0.24424815 -0.21700664
-0.116823554 0.19359873 0.14125654 -0.18651 0.011193801 0.20356524 0.15899538 0.34136176
-0.2535073 -0.14568557 0.13570438 -0.29634395 -0.13471574 -0.14368516 0.119579405 0.4156042
-0.114446275 -0.34575292 0.27298215 -0.1098029 0.018152524 0.22445711 -0.13811973 0.09574998
0.125871 -0.05453767 0.27085266 -0.018686935 -0.14118245 -0.051444978 -0.09999911 0.2930531
0.10739629 0.07611975 0.18613224 -0.09963004 -0.043776922 0.061611496 -0.006585124 -0.041687638
-0.07487502 -0.010914056 0.038870737 -0.10755267 -0.0316745 0.14962322 0.036276 0.439167
-0.04771924 -0.049573738 0.19434914 -0.061338637 -0.10804824 0.042876717 -0.09544541 -0.1431852
0.0040868395 0.16179554 0.23738767 -0.060983784 0.2028203 0.05294495 -0.26973242 0.16205122
-0.026835904 0.18630429 0.16953714 0.19239031 -0.24001837 -0.21338187 0.07375788 -0.37165415
-0.29974884 0.13240784 -0.040768 0.10216458 0.09197741 -0.16809876 -0.03764429 0.14755724
-0.18040587 0.04703636 0.3074349 -0.063958794 -0.045267247 -0.1994695 0.056096703 -0.11932737
-0.05580674 -0.23683041 -0.14381266 -0.08566785 -0.13203341 -0.18244953 -0.002549202 0.13185671
0.00092135544 0.23061918 -0.0087178685 0.119399056 0.026062042 0.17292644 0.11057545 0.14154872
0.026205681 0.08614821 0.15783907 0.01664114 -0.04000077 -0.07267074 -0.029136233 -0.33330894
-0.259097 0.027998785 -0.101713866 0.08339132 0.018100254 -0.14970367 0.12737802 -0.0008493747
-0.031011002 0.11743316 0.1143962 -0.014673393 0.03939752 -0.12847672 0.09866754 0.10584616
-0.37408653 0.21722466 -0.21127692 0.22899266 -0.106933996 0.2600332 -0.025380807 -0.25577444
-0.15227357 0.34347048 -0.07559712 0.014111235 -0.06992244 -0.074550174 -0.057054363 -0.11820499
-0.061202988 0.14502937 -0.26138672 -0.0622543 0.075372316 0.100406684 0.06991044 0.110845275
0.003462862 0.21828882 -0.32017276 -0.41139457 -0.02703678 0.041674957 -0.1568665 -0.25512922
-0.28733388 -0.14098965 0.27436107 0.2648798 0.2865703 0.2898853 0.25667992 0.07016212

diffmodel.residual_layers.0.cond_projection.bias f4 [64]
00000000: 5b19 dbbd d0f4 dcbd a023 e2bd 70c1 b9bb
00000010: 408d 5fbd 99d8 8dbd 0408 c03c c299 9ebd
00000020: 5aee 85bd 44a5 dabd 3da5 cf3d 4661 073d
00000030: c5b8 d33d 322d 033d e275 1f3d 5689 7a3d
00000040: c313 bb3d aaf0 173d 9a70 713d 4e28 92bd
00000050: 00e0 2cba ee03 5e3d b1bf c63d cd3b bc3d
00000060: 4035 65bd 7057 493c ed17 a53d 656d ce3d
00000070: 786f eebc 4776 c7bd d035 94bd ae43 123d
00000080: 68ce 05bd 458c 923d 84eb ef3c d106 c73d
00000090: 6c97 b63c 24d4 f9bc b6fa 503d e025 90bd
000000a0: 4ad1 13bd 64b8 66bd 4b83 bf3d 2234 a9bd
000000b0: 9b90 dabd 7cb3 1dbd cebf 453d 7626 6d3d
000000c0: 104f 543c cee0 7abd cba6 d73d 7e5f b8bd
000000d0: d282 7abd dd45 843d b575 d63d 1ea1 683d
000000e0: 941e dbbc d033 e4bc fd9f 77bd 90cc b3bc
000000f0: b1f9 9f3d d7da 8d3d f0c0 393c ccdb 82bd
-0.106981955 -0.10788882 -0.11041951 -0.0056688115 -0.054578066 -0.06926078 0.023441322 -0.07744171
-0.065396026 -0.10676053 0.101389386 0.03305175 0.10337976 0.032025523 0.03893078 0.06116613
0.091346286 0.03709475 0.058945276 -0.07136594 -0.0006594658 0.054202966 0.09704531 0.091910936
-0.055958986 0.012288913 0.08061204 0.10079459 -0.029105887 -0.097393565 -0.072368264 0.035709076
-0.032667547 0.071556605 0.029287107 0.09718097 0.022289 -0.030496664 0.051020347 -0.07038474
-0.036088265 -0.056328192 0.09351214 -0.08261897 -0.106721126 -0.038501248 0.048278622 0.057898007
0.012958303 -0.061249547 0.1052986 -0.09002589 -0.061159916 0.06458638 0.104716696 0.05679428
-0.02674798 -0.027856737 -0.06045531 -0.021948129 0.07811297 0.06926506 0.011337504 -0.06389579
