save/incremental_sparse_ode_20250731_073235/model.pth (torch, 213539 bytes, 46 tensors)

embed_layer.weight f4 [1, 16]
000000 7a 6d 53 3f 94 e1 95 bc d1 de f9 3e 0d 79 58 3f
       0.8258892 -0.01829604 0.48802808 0.8455971
000010 34 f7 df 3e 30 81 8e 3f 29 34 9a bf c7 ca 31 3f
       0.4374329 1.1133175 -1.2047168 0.6945004
000020 a6 0f b9 3f 74 60 c4 3b 55 9f 80 3f 3f c4 3a 3d
       1.44579 0.0059929434 1.0048624 0.04559731
000030 4e e3 42 3f 43 8a 44 bf 21 f8 f6 be 50 49 68 3e
       0.7612809 -0.7677347 -0.48236182 0.22684216

diffmodel.diffusion_embedding.projection1.weight f4 [64, 64]
000000 89 61 9f 3a ea ff 64 bc 3a 75 55 3d 9b cc 08 ba
       0.0012159805 -0.01397703 0.05211375 -0.0005218477
000010 2e 74 96 bc 23 c1 ae b9 ed fe 21 36 8b 65 87 3c
       -0.018365946 -0.00033331764 2.4139256e-06 0.016527912
000020 a0 fe 86 3d ee 0c 14 bb 1e 01 22 3c 7f ae 67 3c
       0.065915346 -0.0022590715 0.009887962 0.014140724
000030 8b 85 8d 3d c6 61 11 ba 04 38 10 bd 83 25 50 3d
       0.06910237 -0.00055458804 -0.03520967 0.050817024
000040 20 5e 91 bd 4e 8b e7 3b 93 d3 33 bd 81 f4 1f 3d
       -0.07098031 0.007066167 -0.043902945 0.039051536
000050 7b 65 61 bd 19 ae 60 bd 02 75 06 bb 82 63 7f bd
       -0.05502842 -0.054853532 -0.002051652 -0.062350757
000060 7b c7 f9 3c 34 5b 59 3b a0 27 8c b9 eb a8 74 bc
       0.030490628 0.0033165934 -0.00026732404 -0.014932851
000070 d2 5e 43 bd 4d 20 ea 3c b1 dc 90 b9 7a 33 3b bd
       -0.04769785 0.028579855 -0.00027630248 -0.04570339
000080 3d 3b 21 b9 9f 18 03 bd e1 6c e8 3c f2 2f 3f 3b
       -0.00015376224 -0.032005902 0.02837223 0.0029172865
000090 ba 6c 64 bd ab 72 40 bb 39 44 e8 bb 48 a6 0e bd
       -0.055767752 -0.0029365222 -0.007088211 -0.034826547
0000a0 ef 61 9e 3b 12 3d 41 3c e6 d1 48 3d 89 80 22 3b
       0.004833452 0.011794345 0.0490283 0.0024795851
0000b0 2d 3c 95 b9 be 38 92 3c 00 c2 85 3d 35 d3 82 3c
       -0.0002846433 0.017849322 0.06531143 0.015969852
0000c0 4f d6 d5 b9 3e 9e 1d 3d 53 12 e0 bc 30 85 89 bd
       -0.00040786198 0.03848099 -0.027352488 -0.067148566
0000d0 35 c6 80 bd 1b bf b6 b9 3a f6 0d 3d 3b 15 bd 39
       -0.06287805 -0.0003485613 0.034658648 0.00036064707
0000e0 26 ee 2b bd cd 6a 31 bd af 54 22 bd 82 1e d9 3a
       -0.041975163 -0.043314744 -0.03963154 0.0016564878
0000f0 16 66 86 bd eb ae 84 bd 78 a4 f5 39 ab 65 03 b9
       -0.0656244 -0.064786755 0.0004685258 -0.00012531008
000100 81 fd 7c b9 4e fd 18 ba 9a bc cb 39 cc 8e cd bc
       -0.0002412703 -0.0005836085 0.00038859696 -0.025092505
000110 73 2d 3a 3d 8f 47 92 b9 ef 3a ec b9 4f a5 00 bd
       0.0454535 -0.00027900605 -0.00045057337 -0.03140765
000120 db 83 97 3c 99 42 90 3d 5a 10 11 3a 05 aa b2 3a
       0.01849549 0.070439525 0.00055337476 0.0013630992
000130 55 0c 4c 3b 53 1e 1c 3a c5 18 03 bd 22 3f 18 bb
       0.003113528 0.00059554464 -0.032006044 -0.002323099
000140 88 e0 69 3d 7b b2 97 bc e8 4a 66 bd ec 78 3a 3c
       0.057098895 -0.018517723 -0.05622378 0.011381369
000150 12 cf f7 39 64 c2 32 bd dc 39 d4 3a 10 87 00 bd
       0.0004726579 -0.043642417 0.001619156 -0.031378806
000160 25 45 da b9 72 8e 38 bd 74 e4 85 3d 27 3c 2d 3d
       -0.00041631717 -0.04505772 0.065377146 0.042293694
000170 3c 27 92 bd 9c 29 ed ba 1d 2a 0c b9 a8 21 6d bd
       -0.071363896 -0.0018094066 -0.00013367129 -0.057893425
000180 b8 5a 9c 3b be e8 22 3c 42 4d 90 38 df 59 62 3d
       0.0047715567 0.009943185 6.8808455e-05 0.05526149
000190 2e a6 30 bb a7 d5 86 3c 95 06 14 ba 89 4b de 3c
       -0.002695452 0.0164593 -0.0005646733 0.027135627
0001a0 31 1a 42 3d bc 7e 6c 3b a7 bc 69 3c e9 3d 71 bd
       0.04738826 0.0036086282 0.01426617 -0.058896933
0001b0 71 95 11 3c 59 52 1b ba da 8a 0e 3a e8 b3 0d bb
       0.008885727 -0.00059250515 0.00054375606 -0.0021622125
0001c0 59 dc 9b 3c 06 1f 38 bb df f6 ef 3a b2 5b 9b bc
       0.019025968 -0.0028094663 0.0018307826 -0.018964622
0001d0 4a b2 aa 33 bc b3 ed b8 9f 0c da bc 73 04 1e 3d
       7.9486725e-08 -0.00011334519 -0.026617346 0.03857846
0001e0 6f a9 5f bd 48 dc a7 3b e1 74 0f 3a d3 ed ca 3c
       -0.054604944 0.005122695 0.00054724334 0.024771607
0001f0 24 63 c6 34 6e 97 be 3b 65 04 18 ba f8 d2 5b bd
       3.6952508e-07 0.0058163917 -0.00057989947 -0.053667992
000200 35 66 6a 3d 64 b7 25 bd 68 ef 33 bd 7c 3d 3d 3d
       0.05722638 -0.040458098 -0.043929487 0.046201214
000210 a6 e4 9f 39 bf 47 10 3c 58 b2 8f 3c 02 8c 2c 3b
       0.000304972 0.008806168 0.017541096 0.0026328568
000220 9b 89 18 bd 40 21 de 3a 12 3a 80 3b b2 47 57 bd
       -0.037240606 0.0016947165 0.0039131725 -0.05255861
000230 c8 81 f2 bc 5f 6f 77 3a 36 50 cf 3c d2 09 b6 3b
       -0.0296029 0.0009438898 0.025306802 0.00555537
000240 53 3a 78 ba 82 33 01 3a f3 f7 2e 3c 3d 4f b2 bc
       -0.000946914 0.0004928635 0.010679233 -0.0217663
000250 e9 6f 69 bc 4d 22 c5 b7 ad 66 0b bd 19 cd c0 bc
       -0.014247873 -2.3500203e-05 -0.034033466 -0.023535298
000260 af 53 fa 39 7e 47 3d bc 93 c8 87 3d 55 18 37 3c
       0.00047746065 -0.01155269 0.06630053 0.011175235
000270 85 88 10 3d 15 15 a1 ba 67 c2 90 39 c2 6c 86 3d
       0.035286445 -0.0012289608 0.0002761066 0.06563713
000280 f3 dc d3 bc d7 30 83 3d 08 01 31 37 6d ff 9e b9
       -0.025862193 0.064058 1.0550262e-05 -0.00030326415
000290 fa 95 28 3c 91 96 5a b9 18 ae 4c bd 19 18 f3 3c
       0.010289663 -0.0002084619 -0.049970716 0.029674577
0002a0 60 34 6a 39 9e 75 12 39 15 7f 56 bd 6c e9 8b bc
       0.0002233549 0.00013967461 -0.05236729 -0.017079078
0002b0 bf 7d 61 3d 82 79 6f bd a5 d8 13 3a 8b fe 9b bc
       0.05505156 -0.05846549 0.00056398875 -0.019042274
0002c0 33 3f af 3b 87 48 36 3d 77 25 35 3d 25 69 97 3c
       0.00534811 0.04450276 0.044225182 0.018482754
0002d0 c2 08 b6 3b f8 08 81 3d a9 b3 99 37 aa 1f 20 bc
       0.005555243 0.06300539 1.8322682e-05 -0.009773174
0002e0 e9 51 ef bc ba 08 e6 3b 4b 63 d7 bb 4d b0 ab 38
       -0.029213862 0.0070200833 -0.006573116 8.186754e-05
0002f0 f5 f7 13 3d fd c2 0b 3d 85 6b 7e 3d 3c ac ea b9
       0.036125142 0.034121502 0.062114257 -0.00044760283
000300 0e 0b ef b9 c0 74 12 39 3c d7 11 3a d7 46 0f bc
       -0.0004559387 0.00013967138 0.00055633835 -0.008744917
000310 a9 39 18 3a 75 cb f9 3c 1e 3d 58 bd b6 f7 82 3c
       0.0005806932 0.030492524 -0.05279266 0.015987258
000320 dc 1e 86 3d 16 19 f5 bb 4e 18 09 3a cb 39 47 bd
       0.06548855 -0.007479797 0.0005229757 -0.0486391
000330 1f e3 b0 39 cb 3e 3e 3d c9 26 84 3d d4 d4 6a bd
       0.00033738554 0.046446603 0.0645271 -0.057331875
000340 cf ab b2 b7 a6 02 07 bd b2 09 ce 3c 5e a0 38 3d
       -2.1299258e-05 -0.03296151 0.025151107 0.045074813
000350 64 a3 10 3a 74 de 89 38 8b 48 75 3d e8 1c e9 3c
       0.0005517511 6.574104e-05 0.059883635 0.028456166
000360 aa a2 c0 b8 9e 29 55 38 a5 bb db bb 6b 84 5a 3c
       -9.185572e-05 5.0821916e-05 -0.0067057186 0.013337235
000370 db 97 88 3d ec bf 85 39 88 9e 30 bc 5f 9e 22 bd
       0.06669589 0.0002551073 -0.010779984 -0.039701816
000380 c6 fb 90 bd 64 dd 7f 3d 70 23 e7 bb c6 36 eb b9
       -0.07079272 0.062466994 -0.007053785 -0.00044863502
000390 c0 27 8d 3d 07 e9 6f 3d bd 8c 39 bd 8f fd cb bc
       0.06892347 0.05857184 -0.045300234 -0.02490118
0003a0 a6 b9 bf bc e6 d7 5e 3c 6b a2 c1 bc ba 1f 04 3a
       -0.023403954 0.013601279 -0.023637017 0.0005040128
0003b0 13 df 41 3d 67 20 e7 3c 4c 6f 12 3a 1b 85 04 3a
       0.04733188 0.028213693 0.00055860425 0.00050552347
0003c0 dc 60 6e 3d b0 51 66 3d a2 9e f7 b9 88 d9 6a 3d
       0.05819784 0.056230247 -0.00047229702 0.05733636
0003d0 06 1c 87 bb ba 4d 97 39 cd f0 8f 3d 1b 30 ae 3b
       -0.0041232137 0.00028858875 0.07028351 0.005315793
0003e0 5d 08 24 ba db f4 1e 3c 33 1a 52 3d 2b 98 e2 bc
       -0.000625735 0.009701933 0.051294517 -0.02766045
0003f0 da a6 a2 bc 6d d4 66 3d a2 84 92 3c fe 11 5c b9
       -0.019854952 0.05635493 0.01788551 -0.00020987538

diffmodel.diffusion_embedding.projection1.bias f4 [64]
000000 96 33 1d 3c 6e de a3 3b 02 be 97 ba 6b 7f 80 bd
       0.009594819 0.005000881 -0.0011577012 -0.06274303
000010 e6 f8 48 3d c1 38 79 b6 52 ab 32 3c cd b3 85 3c
       0.049065493 -3.7136926e-06 0.010905104 0.016321087
000020 af f7 03 3d 23 36 6a b7 7d 1f 37 bd c6 54 4e bd
       0.03221863 -1.3960092e-05 -0.044707764 -0.050373815
000030 d1 e8 2a 3c 76 c4 8f b7 ed 21 44 3d c2 2c 41 bd
       0.010431484 -1.7138413e-05 0.047883917 -0.047161825
000040 1c 1a 54 bc 35 e4 4d 3c 45 a3 2e 3d bb 17 33 3d
       -0.012945678 0.012566616 0.042636175 0.043723803
000050 fc ac 23 bc bc dc 40 bd 40 ed 81 3d bd 88 48 3d
       -0.009989973 -0.04708551 0.0634408 0.04895853
000060 0a 2d 49 3d 47 f4 0c 39 d8 c5 91 3d 9c c3 79 3c
       0.04911522 0.00013442441 0.07117814 0.015244391
000070 0a ea f2 3c 26 72 d4 b9 cb 59 1b 3c 21 0b 52 3d
       0.029652614 -0.00040520838 0.0094818575 0.051280145
000080 cd 1d 33 3d 8b 65 04 3b ef d9 6d 39 e8 4f a3 3c
       0.043729592 0.0020202126 0.00022683268 0.019935563
000090 43 2c af bc 01 60 3f 3d b1 b5 9e 3c d1 2e e5 b9
       -0.02138341 0.046722416 0.019373747 -0.00043713165
0000a0 74 2f 68 bd 04 28 36 bd ab 82 84 3c 13 a7 0f ba
       -0.05668588 -0.044471756 0.016175589 -0.0005479913
0000b0 b8 8f cc b9 1f ae a1 b7 db 01 10 3d 40 96 a5 ba
       -0.0003901699 -1.9273777e-05 0.03515802 -0.0012633279
0000c0 d4 9c 58 bc f8 6d 63 3b 2e 65 d4 3c 32 46 64 3d
       -0.0132209845 0.0034702998 0.025927152 0.055731006
0000d0 22 45 4a b9 c9 1d 7d 3d 09 6d e1 3c 0c 89 a7 b7
       -0.00019289975 0.061795983 0.027517812 -1.9971769e-05
0000e0 bc ed b2 37 5c 19 d1 bc 15 28 ec 39 30 88 91 bd
       2.1329957e-05 -0.025524788 0.0004504329 -0.07106054
0000f0 2e db 8d 3c 96 5b e3 bb 0f fb 84 3d 98 0d 2c 3c
       0.017316427 -0.006938408 0.06493198 0.010501288

diffmodel.diffusion_embedding.projection2.weight f4 [64, 64]
000000 19 03 de 3c f9 1b 73 bd 2f 75 15 bd c1 4c 7a 39
       0.027101086 -0.05935285 -0.036488708 0.00023870451
000010 9a a0 27 ba fa b5 75 3a 95 57 32 3d 24 64 80 bd
       -0.0006394476 0.0009373125 0.043540556 -0.062691
000020 a4 9d 73 3b 88 bf ce 36 c1 96 2a 3d d3 35 79 3a
       0.0037172819 6.1615756e-06 0.041647676 0.00095066166
000030 2c 1e a9 3c b5 1a de b9 13 a9 99 bc 5a ff 89 3c
       0.02064427 -0.00042363038 -0.018757379 0.016845394
000040 53 53 1a 3c f7 46 f2 b8 71 33 31 b7 e7 5f 0b 3b
       0.00941928 -0.000115526775 -1.0561999e-05 0.002126688
000050 0d 88 03 bd d1 18 ac 3c af 19 50 bd 6f 3d 31 bd
       -0.03211217 0.021007927 -0.050805744 -0.04327148
000060 21 a4 8b bd ea b3 2f 3d a2 57 da 36 34 30 c5 37
       -0.068184145 0.04289619 6.507108e-06 2.3506676e-05
000070 62 e2 86 ba ac 42 3c bb 6d 5f bb b7 1d 9b 34 3b
       -0.0010290856 -0.0028726263 -2.2336573e-05 0.0027558275
000080 a9 79 54 3d 1b 09 91 bd 34 12 62 3d e9 6e 95 bc
       0.051873837 -0.07081815 0.05519314 -0.018241363
000090 6e 3f ea b6 89 d4 4d 3a ef d3 8a bd a2 1f 98 bc
       -6.9811276e-06 0.00078517996 -0.067787044 -0.018569771
0000a0 2f b2 37 3c 66 a6 b0 3c 04 42 06 39 ea 1d 86 3b
       0.011211916 0.02156372 0.00012803829 0.0040929215
0000b0 c1 76 07 bb f8 b4 8f bd 7b 3e 46 bd 74 b0 17 ba
       -0.0020670148 -0.07016939 -0.04839943 -0.00057864864
0000c0 60 39 85 bc a6 91 2f bd b1 fa 29 bd 7b b8 91 bd
       -0.01626271 -0.04286351 -0.041498844 -0.07115265
0000d0 b5 ca 35 bd f3 95 3b bd c2 3a 76 bb 56 e0 17 b9
       -0.04438277 -0.0457973 -0.0037571643 -0.00014484054
0000e0 55 1b dd ba 74 50 06 ba 2c 43 63 3a c3 64 24 bd
       -0.0016869107 -0.0005123683 0.0008669372 -0.040135156
0000f0 b3 b1 26 3c 15 05 77 bd a5 20 f2 bc eb b9 6b bd
       0.010174203 -0.06030758 -0.029556582 -0.057550352
000100 04 1f 1c 3a ce c2 c1 3c da fa 8a bc d3 25 a6 bc
       0.00059555494 0.02365246 -0.016965318 -0.020281708
000110 5a 70 8d bd 42 52 08 ba 59 90 24 bc 03 85 4f 3d
       -0.06906195 -0.00052002457 -0.010044181 0.05066396
000120 58 a4 09 bd 05 2c 55 bd 93 4c a3 3c 5e c7 38 3d
       -0.033603996 -0.052043933 0.019933974 0.045112006
000130 a3 dd 55 3c 37 11 bf 3c a2 45 ac b9 39 44 da b8
       0.013053331 0.023323638 -0.00032858277 -0.000104077575
000140 d0 e0 02 bc 15 23 89 bc ef 8e a1 b8 06 84 f9 36
       -0.00798817 -0.016740361 -7.703702e-05 7.436148e-06
000150 54 c1 9b bc bf 80 0b 3a 27 23 ad b9 dd 60 86 3c
       -0.019013084 0.0005321614 -0.00033023322 0.01640361
000160 bb e3 fb bb 8f d5 a3 bc 8d 57 8a bd bf d2 74 bd
       -0.0076870597 -0.019999294 -0.0675498 -0.059771296
000170 3c 01 c6 bc 11 41 8b bc 22 cb 65 bc 07 6c 3f 3c
       -0.02417051 -0.0169988 -0.014025481 0.011683471
000180 01 12 c6 bc a0 e0 ac 3c eb c9 16 3c 9e 27 91 3d
       -0.024178507 0.021103203 0.009203414 0.070876345
000190 72 dc 5e 39 05 dc 65 3c 49 17 d8 3b 34 e3 59 bd
       0.00021253692 0.0140295075 0.0065945727 -0.053195193
0001a0 39 ea 17 bd 61 31 80 bd 87 94 90 3c b1 04 1c bd
       -0.037088607 -0.06259418 0.017648948 -0.03809041
0001b0 ad 2e c3 bc a3 0e f4 3c 66 4d 92 3d 44 30 56 3d
       -0.023825968 0.029792136 0.07143669 0.052292123
0001c0 a7 ba 0a 3d 0a 43 d3 bc 05 c2 82 bd cc 95 54 bb
       0.03386941 -0.025788803 -0.063846625 -0.0032437919
0001d0 c8 91 86 bd be 06 0d bd 27 11 0a bc e2 9a 1b 3a
       -0.06570774 -0.034430258 -0.008426941 0.000593586
0001e0 c6 be 9d 3c 7b cd 0f 3b c7 a1 2b bd 10 94 71 bd
       0.019256007 0.0021942544 -0.04190233 -0.058979094
0001f0 10 01 b7 bb a5 b8 86 bd a9 a9 d0 38 80 ff 4f 3d
       -0.0055848435 -0.06578187 9.9498146e-05 0.050780773
000200 14 a5 67 3d 77 f4 19 ba e2 3f 86 bd 1c 1e 78 3d
       0.056553915 -0.0005872915 -0.065551534 0.06057559
000210 51 25 b8 bc 7a 5b b8 3b df 32 0f bd 05 73 28 3d
       -0.022478731 0.005626139 -0.034960624 0.041125316
000220 7a 66 db ba e9 f8 90 3c fa aa 70 3d ea fb d9 bc
       -0.0016738914 0.017696815 0.058756806 -0.02660938
000230 7f 60 d5 3c 1c 8b db 3b ac 81 c4 bc 06 fd b5 3b
       0.02604699 0.0066999327 -0.023987614 0.0055538444
000240 e5 29 24 3d 4b c3 a8 3c c2 4d 91 3d 41 a2 1d bc
       0.040079016 0.020600935 0.07094909 -0.009621204
000250 e3 c8 6a 3d 77 98 1b ba 39 ea 49 bd 85 c6 50 bd
       0.057320487 -0.00059355 -0.049295638 -0.050970573
000260 3d c6 79 bd c3 2d ba bc 87 3b 91 3d a4 a4 1f bd
       -0.06098007 -0.022726899 0.07091432 -0.038975373
000270 c1 e6 92 bd c0 0f a6 3c 67 2c 8e bc e6 a0 07 3c
       -0.07172919 0.020271182 -0.017355157 0.008278107
000280 96 4e 29 bd 28 91 fc bc e5 5d 8a bc 3b 97 25 bd
       -0.04133471 -0.030830935 -0.016890476 -0.040427428
000290 ae c4 17 3a ea 83 b8 3c 3f 3b 6b bd b5 ee ee 3a
       0.00057895004 0.022523839 -0.05742955 0.0018229099
0002a0 86 83 cc 39 d5 9f 5c 3d bd 90 32 bb c1 7d 59 b9
       0.00039007905 0.053863365 -0.0027246915 -0.0002074158
0002b0 24 46 f3 bc 27 30 8f 3c bf bd 5b 39 f6 33 0b bd
       -0.029696532 0.017479016 0.00020956153 -0.0339851
0002c0 3b d9 42 bd 89 83 2f 3d 32 fc 92 bc 23 4c e5 b9
       -0.04757045 0.04285005 -0.017942522 -0.0004373501
0002d0 6a 58 35 bc 46 57 6c 3d e8 ba ea bb 91 47 03 3d
       -0.011068443 0.057700418 -0.0071633942 0.032050673
0002e0 86 09 43 bd a1 6f 8a bd 8c 45 63 3d d3 82 f5 b9
       -0.047616504 -0.06759573 0.055486247 -0.00046827513
0002f0 6b 39 46 bd bf e1 33 3d ce ea a3 bb 4e ed f4 b9
       -0.0483946 0.04391646 -0.005002356 -0.00046716112
000300 ac 45 b6 b7 fc da cb 3a d7 83 ec bc f6 42 57 bd
       -2.1728534e-05 0.0015552933 -0.02887146 -0.052554093
000310 b1 31 49 bd 08 ba 97 3b c2 29 81 b6 10 95 0b 3c
       -0.049119655 0.004630331 -3.849361e-06 0.008519426
000320 c8 11 b0 3c 01 4a 50 3d 07 c8 59 bd a8 db e5 bb
       0.021492854 0.050851826 -0.053169277 -0.0070147105
000330 73 3a ad 3c b6 72 84 3d 30 2a 0e ba 4a a9 ce 3c
       0.021146035 0.06467192 -0.00054231565 0.025227208
000340 5d 13 7c 37 cd 4c 44 37 79 86 ab bc a0 e9 1b 3a
       1.5024879e-05 1.1700392e-05 -0.020938145 0.00059475936
000350 e0 a0 4b bc b5 5e 8d 3d 57 2a 8c 3d 86 53 0c bd
       -0.012428492 0.069028296 0.06844013 -0.03425934
000360 c7 43 89 3d cc 54 3c 3d b7 63 96 bb 33 f8 49 bd
       0.067023806 0.045979306 -0.0045895237 -0.049308967
000370 f9 9c 86 3c 73 31 1e 3d cb 5d b6 bc 18 40 70 3d
       0.016432272 0.038621377 -0.02226152 0.058654875
000380 4a b1 77 3d 8b f1 16 3d 04 cb 12 bd d8 00 79 bd
       0.06047181 0.036851447 -0.035838142 -0.06079182
000390 9b 87 13 3d c8 a0 17 3a ec bd d7 bc b9 dc af 3c
       0.036017995 0.0005784151 -0.026335679 0.021467553
0003a0 0a b2 7f bd 0a 7e 17 3d 1f a5 4e bd 93 c0 bc 3b
       -0.06242565 0.036985435 -0.05045044 0.0057602613
0003b0 a9 14 10 ba 2e 6e dc 3c 05 7f c2 bc 0a 58 5e 3d
       -0.00054962427 0.026908007 -0.023742208 0.05428318
0003c0 2a d6 80 b9 62 56 3b 3d 65 79 f7 38 51 02 16 3c
       -0.00024573627 0.045736678 0.00011800489 0.009155826
0003d0 74 96 74 3d d3 b0 34 bd ee ce 83 39 17 a0 7b bd
       0.059713796 -0.044113945 0.00025140442 -0.06143197
0003e0 9d ba 09 bd 21 bb 0f 3a bd 59 07 bd c7 48 17 ba
       -0.033625234 0.00054829015 -0.033044565 -0.00057710375
0003f0 4f 35 93 bd fe 8c 5f 3b 75 74 47 3d b1 3d 71 39
       -0.07187902 0.0034111138 0.048695046 0.00023006533

diffmodel.diffusion_embedding.projection2.bias f4 [64]
000000 7f ff 86 bc 46 d6 21 bd 21 e4 62 bd 72 1f 16 ba
       -0.016479252 -0.039510988 -0.055393342 -0.00057267316
000010 5b 11 7a 3d 1e 81 4e bd 19 47 ab 3a a8 6e 2f bd
       0.061051708 -0.050416104 0.0013067453 -0.04283014
000020 b3 21 14 3d f5 6f b0 bc 81 52 83 3c ab c6 51 bd
       0.03616495 -0.02153776 0.016030552 -0.051214855
000030 1b 61 f8 b9 e8 95 8b 3c c8 88 ec 3c 84 e1 80 bd
       -0.00047374595 0.017039254 0.028873816 -0.06293014
000040 57 e5 58 3c cc 35 53 3b 76 bc 0d bd 6f f0 41 3d
       0.013238273 0.003222811 -0.03460356 0.047348436
000050 61 86 db 3c 9b 0a b7 bc c1 db e5 bc 19 b1 3d 3d
       0.026797475 -0.022343924 -0.028058888 0.04631147
000060 0a c6 74 3d e1 f5 02 3d 23 e1 db bc 1b f6 89 bc
       0.059759177 0.03197277 -0.026840752 -0.016840985
000070 d5 00 62 bc 85 13 48 3d a7 f9 7e bc 60 f4 66 bc
       -0.013794144 0.04884674 -0.015562451 -0.0140963495
000080 69 e2 1a 3a 9a c1 eb 3c b0 c6 f6 bc 88 ba 43 bd
       0.00059083715 0.02877884 -0.030124038 -0.047785312
000090 95 26 a4 3b 9d 24 f1 bc 9c 95 80 bd a9 84 81 bd
       0.005009482 -0.029436404 -0.06278536 -0.06324131
0000a0 fd 65 1f 3c 3b f5 3f 3c 6d 42 8b bd ed c4 07 bd
       0.009728906 0.011716182 -0.06799779 -0.033146787
0000b0 db d8 b0 b9 7f 0e cd bc 68 4d 83 b7 97 17 96 bc
       -0.00033730906 -0.025031326 -1.5652462e-05 -0.018321795
0000c0 f4 34 82 bd 2a 7a 19 3d a8 a3 71 b9 83 ae f0 bc
       -0.06357756 0.03747002 -0.00023044518 -0.029380089
0000d0 5d e3 d6 3c 4f 9f b6 3b 36 ec 75 bd 10 1b 31 3a
       0.026231462 0.0055731903 -0.06003972 0.0006756047
0000e0 63 4f 08 3c 04 20 89 bc 8a 93 93 bd 8d 9a eb 39
       0.0083197085 -0.016738899 -0.07205875 0.00044937842
0000f0 f0 50 ca bc a3 8c 83 bc 1a af 6f 3d f1 49 1e 37
       -0.024696797 -0.016058272 0.0585166 9.43475e-06

diffmodel.input_projection.weight f4 [32, 2, 1]
000000 2f f5 af bf c7 0b 59 bf b7 e2 93 be b6 b2 ad bf
       -1.3746699 -0.84783596 -0.28883907 -1.3570163
000010 fb f8 8f 3d 4d 14 d6 3f a0 2b f1 bd 79 04 12 40
       0.07029911 1.6724945 -0.11775899 2.281523
000020 9c ed 6f bf d3 04 4a 3e 2b 81 19 3f 22 a1 ed be
       -0.9372194 0.19728403 0.5996272 -0.46411997
000030 ca 8d 9e bf a7 ab 16 3f 33 2d 5d 3f 9c 46 c7 39
       -1.238702 0.5885567 0.86397094 0.00038008846
000040 11 64 ba bd 86 f0 16 bf 25 3b c2 bf b4 74 54 3f
       -0.091011174 -0.5896076 -1.51743 0.82990575
000050 94 e0 67 3f 4a 1e 8c 3f ed 1c 08 3f f6 b4 f1 3f
       0.90577054 1.0946743 0.5316914 1.888335
000060 e9 73 6c 3d aa dc 99 bd 4f 66 16 3f 24 7f 5c be
       0.057727728 -0.075127915 0.5874986 -0.21532875
000070 ca 5f c1 3c 72 8b a0 be 9a 37 35 3f 95 84 00 ba
       0.023605246 -0.31356388 0.70787966 -0.0004902569
000080 69 06 82 3e d0 80 99 bf e3 3b f6 3f 48 f8 df bf
       0.25395516 -1.1992435 1.9237026 -1.7497644
000090 dc 69 f9 bb 61 2b 18 3d 1f 1f d0 be 13 1b b8 3e
       -0.0076114964 0.037150744 -0.40648744 0.35958156
0000a0 34 93 ae bf 55 d7 11 bf 39 bf cd be 9d 64 f1 3e
       -1.3638673 -0.56969196 -0.40184954 0.47147074
0000b0 20 e7 bf 3e 6b 29 21 be 12 91 0c 40 3f d9 18 be
       0.37481022 -0.15738456 2.1963544 -0.14926623
0000c0 e7 8d 8a 3f 94 b8 4d bf db c8 00 be a5 d5 52 40
       1.0824555 -0.8035977 -0.1257662 3.2942898
0000d0 96 f9 ea 3e 63 a1 c4 3f a8 8a b8 3e 10 f0 8d 3f
       0.45893544 1.5361751 0.36043286 1.1088886
0000e0 d5 33 83 bf 7d c1 b6 b7 74 d9 91 bf 35 d1 e5 bf
       -1.0250193 -2.178619e-05 -1.1394486 -1.795447
0000f0 d0 2a 67 be 18 9a 01 bf 8f c5 aa 3e fa 37 0f bd
       -0.22574925 -0.50625753 0.3335385 -0.034965493

diffmodel.input_projection.bias f4 [32]
000000 35 90 d4 3a c3 e4 92 3d 09 5b d2 be 96 be 73 3d
       0.0016217293 0.07172539 -0.4108508 0.05950793
000010 c5 fc 03 bf 6c 94 83 3e 1a c0 bb 39 69 15 37 be
       -0.5155757 0.25699174 0.00035810546 -0.17879261
000020 df 79 33 b9 00 df a6 bd aa 64 05 3e db 98 d4 3e
       -0.00017116171 -0.081480026 0.13026682 0.4152287
000030 6e 40 74 3e 5a ce 06 3f 0f 16 ab 3d 18 eb df be
       0.23852703 0.5265862 0.08353817 -0.4373405
000040 a6 86 7c be c9 a3 04 bf 6c 91 94 bc fd cb d9 bd
       -0.2466074 -0.51812416 -0.018135749 -0.10634611
000050 9b 46 0e bf 69 09 24 bf 55 19 83 be 52 b2 fd 3e
       -0.55576485 -0.6407686 -0.25605264 0.4955011
000060 32 00 91 37 92 56 ea be 46 5a cc bc a2 4e 9a be
       1.7285438e-05 -0.45769173 -0.02494539 -0.30138117
000070 b8 c0 71 be e3 8e 9d be 6b 20 cb 3e 91 d8 43 3e
       -0.23608673 -0.30773076 0.3967317 0.19125582

diffmodel.output_projection1.weight f4 [32, 32, 1]
000000 44 22 8d 3d 7e a2 26 3d 49 1f aa 3e 13 4b b2 bd
       0.06891301 0.04068231 0.33226994 -0.087057255
000010 38 49 d0 3c c8 4a fa 3d bc f2 51 be 23 04 bd 3e
       0.025425538 0.12221295 -0.20502752 0.3691722
000020 66 35 4d bd 62 e5 cf bc e2 c1 02 bf 11 bc 80 bd
       -0.050099753 -0.025377933 -0.5107709 -0.06285871
000030 49 96 07 bf 04 81 5e 3c ea 3d 4e 3e 20 41 10 3a
       -0.5296369 0.013580564 0.20140806 0.00055028684
000040 13 48 a2 b7 f8 e8 3c be 43 fe cc 3c 8a 2f a9 bd
       -1.9345467e-05 -0.18448246 0.025023585 -0.082610205
000050 c5 df 8a be 0a 27 db 3d c8 8a 33 3e 15 bb d9 3d
       -0.27123848 0.107008055 0.1753341 0.10631386
000060 83 92 d2 be 48 e7 26 be 06 11 be 3d 7d 0d 02 bf
       -0.41127405 -0.16299164 0.09280591 -0.5080183
000070 20 8c c5 3d 76 d9 6c 3e 2d 60 cc b9 e4 69 0b be
       0.09645867 0.2312983 -0.0003898157 -0.13614613
000080 c9 73 fe 3d 2d 8a 81 3d ce ee 4b bc 05 90 d9 3d
       0.12424428 0.06325183 -0.012447072 0.10623173
000090 bd da 6a 3d fd f8 4a be e0 be e4 3e b0 1e 76 3e
       0.05733751 -0.19821544 0.44676876 0.24035144
0000a0 55 76 d1 ba 9b 28 d1 be 16 58 29 3e 35 b5 9e 3d
       -0.00159807 -0.40851292 0.16537508 0.07749406
0000b0 fa 4d 21 3e b1 df fe 3d 6c 75 77 be 6f 8e bd be
       0.15752402 0.124450095 -0.24165887 -0.3702273
0000c0 e3 41 55 be 11 00 19 b9 0a 9b c0 be fe 22 5d be
       -0.20825915 -0.00014591242 -0.37618285 -0.2159538
0000d0 78 74 4b 3d 2e ec ef 3d 7f de ae be ef 23 39 bd
       0.04967162 0.117149696 -0.34154126 -0.045200285
0000e0 2c 96 60 3e ab 13 c5 b7 a6 1a 2e bd 2b 22 df bc
       0.21932286 -2.3493389e-05 -0.042505883 -0.027237972
0000f0 6b 26 81 bc 9d 82 bb 3e dd 12 41 be 39 24 9d 3c
       -0.01576539 0.36623088 -0.18854852 0.019182311
000100 f9 10 8f 3e 9e 69 9a 3d b6 85 51 be 73 23 44 be
       0.27942637 0.07539676 -0.20461163 -0.19154148
000110 cd 5d a4 3e de 6d 2a 3a a9 1d c7 b9 15 98 b6 bd
       0.32102814 0.0006501357 -0.00037978336 -0.08915726
000120 4b 6d a1 be 4e 2f 09 3c a8 c2 68 bc 0e 2a 73 be
       -0.31528696 0.008373095 -0.014206566 -0.23746511
000130 cc 8a b8 bd aa 07 cc bd d7 ab 11 3e c3 7f a2 be
       -0.090108484 -0.09962399 0.14225708 -0.317381
000140 4e 81 22 be 31 f4 ea be c3 66 2a 3e de 4f 0d 3c
       -0.15869638 -0.45889428 0.16640763 0.008624999
000150 0e bd ac ba d3 9f 25 3e 0b 0e 90 bd 22 b9 a3 be
       -0.0013178901 0.1617425 -0.070339285 -0.31977183
000160 e9 a2 65 3e d1 41 0a 3b f6 2a ae bd f3 6f e5 b6
       0.22425427 0.0021096359 -0.08504288 -6.8377644e-06
000170 2a 8e e5 bc 30 33 78 3e 48 13 37 bd f5 c5 c2 3d
       -0.02802189 0.24238276 -0.044696122 0.095104136
000180 3f fa 9a 3d 36 30 a6 3c 0e b2 00 3e 49 e8 1f bd
       0.07567262 0.02028666 0.12567922 -0.039039884
000190 76 8a 61 3e 87 1e da be 44 4a 60 3e 2c 3a ab 3e
       0.22025475 -0.42601416 0.2190333 0.3344282
0001a0 97 12 92 be f4 b8 a3 3d f5 7c d5 be b4 bb a5 bc
       -0.28529808 0.079942614 -0.41696897 -0.020231105
0001b0 1e 8d 96 be 02 f6 33 b9 d1 f3 e5 38 54 6e 91 3d
       -0.2940454 -0.00017162415 0.00010964985 0.071011215
0001c0 27 dc 70 3e 3e b9 f7 3c d8 bd f1 b8 3d 7d a7 bd
       0.23521481 0.030239698 -0.00011527137 -0.08178184
0001d0 7c 4b 8d bd 08 d1 6c 39 8f fc ea bd a8 2f 1c ba
       -0.06899163 0.00022584584 -0.11473953 -0.0005958029
0001e0 8b b5 89 3e 88 3f b3 3d 9e 94 a5 3c df af ab 3d
       0.2689632 0.08752352 0.020212468 0.08383154
0001f0 13 26 8d be 14 b4 56 3d b6 7f 2c be dc 07 e0 3d
       -0.2756811 0.05241783 -0.16845593 0.10938999
000200 a2 74 a5 3e 23 df 8c bd 84 d0 0a 3e 49 df a3 b7
       0.32315546 -0.068784975 0.13556105 -1.953509e-05
000210 68 3c d2 bd 0e 4f 86 be 8d 36 a5 3d b8 11 7f 3e
       -0.10265428 -0.2623219 0.08067045 0.24909103
000220 c6 85 19 3e f7 99 03 3f a2 23 9f b6 35 02 1e be
       0.14992437 0.51406807 -4.7427175e-06 -0.1543053
000230 38 38 09 be f3 4d da 3c 9d b0 85 3e 6f 37 06 3d
       -0.13400352 0.026648497 0.26111308 0.03276771
000240 98 60 14 be e5 35 31 3e db 46 1b bf ee a2 1b 3a
       -0.14489973 0.17305715 -0.6065499 0.0005937059
000250 77 f0 0f 3e 29 f8 f7 be 52 52 f4 bd b7 a1 f4 3e
       0.14056574 -0.4843152 -0.11929764 0.4777963
000260 c2 3a 33 bd 35 7b 87 be 3a bc 22 be 80 04 cc bc
       -0.043757208 -0.26461187 -0.15892115 -0.02490449
000270 f6 fd 23 be cd ba f7 3e 8d 08 a7 3e a5 f8 ff 3b
       -0.16014847 0.48384705 0.3262371 0.007811623
000280 89 e0 52 3d 14 e5 66 bd 32 0d c6 b6 2a 48 47 bb
       0.051483665 -0.05637081 -5.902396e-06 -0.0030408003
000290 07 2d bd bd 5e a5 b4 3d 6a 7b d8 bd b2 67 01 bf
       -0.09237104 0.08820604 -0.10570414 -0.5054885
0002a0 46 0e 2a 3f 1b f7 23 3e 48 dd ea bd f0 26 5b 3e
       0.6642803 0.16012232 -0.11467987 0.21401572
0002b0 40 dd 52 3d b6 47 69 be f3 3d 06 3b e0 3c 1a be
       0.05148053 -0.22781262 0.0020483702 -0.15062284
0002c0 68 28 7a bc 76 96 99 bc c1 39 6f be a2 31 18 37
       -0.015268423 -0.018748503 -0.23361875 9.071462e-06
0002d0 0d a9 46 3f 5b ce 0f 3e 9f d9 27 bd 55 b8 1e 3e
       0.776017 0.14043562 -0.040979024 0.15500005
0002e0 93 fe 96 3d ab 83 c0 bd 8c 1d 51 be f3 fd a3 3d
       0.07372775 -0.09400114 -0.20421427 0.08007421
0002f0 bc 62 09 ba 06 40 86 b7 ed 39 b4 bc 20 23 f2 be
       -0.0005240848 -1.6003858e-05 -0.022000277 -0.47292423
000300 dd 55 10 3d dc 15 fc 3d 08 5f e0 3b cc ad 0c bc
       0.035238136 0.12308857 0.006847266 -0.008586358
000310 88 d3 52 bc 13 68 08 be 7e e2 01 bd 8d 16 24 3e
       -0.012867816 -0.13320951 -0.03171014 0.16024227
000320 ff 63 0e ba 8c 8f 7b b7 1f e6 27 39 47 72 5d bb
       -0.00054317707 -1.4994188e-05 0.00016012088 -0.0033790038
000330 3a a9 ed 3d 62 01 e5 39 72 2e 15 bd f7 0f 13 ba
       0.11604543 0.00043679314 -0.036421247 -0.0005609984
000340 21 83 77 bd 10 e6 08 be d4 3d 3c 3c 54 67 7e bc
       -0.06042779 -0.13369012 0.01148935 -0.015527565
000350 f5 36 14 3a 5d 28 c9 be 65 a2 29 3e 65 f0 00 3e
       0.0005653941 -0.39288607 0.16565855 0.12591703
000360 24 08 02 bf d5 8a c6 bd 33 f6 42 be 22 cd 3f 3e
       -0.5079367 -0.09694449 -0.1903923 0.18730596
000370 66 5f 8b be 85 f5 09 be c0 80 21 3e df 8e e5 bc
       -0.2722122 -0.13472565 0.1577177 -0.028022228
000380 f2 47 cb bd fc 2b 36 3e 7e e6 85 be fd 6b d4 bd
       -0.09925832 0.17790216 -0.26152414 -0.1037216
000390 e3 fb 22 be 5b a8 e0 3d 27 ab 81 3c f9 40 fa 3d
       -0.159164 0.10969611 0.015828682 0.12219424
0003a0 da 2d 13 3e 38 bc 5c be 6c a3 f8 bd e4 52 b8 3d
       0.1437296 -0.21556175 -0.12140545 0.09000185
0003b0 d0 32 28 be ee e7 50 bc 06 c0 8b be c8 7d 9c bd
       -0.16425633 -0.012750609 -0.2729494 -0.07641178
0003c0 c5 9f 1b be 48 a5 48 be f0 0d 8a 3e bc 8f 68 3c
       -0.15197666 -0.195943 0.26963758 0.014194425
0003d0 65 71 01 be 38 2c 34 3e 36 6a 82 3d 06 a1 39 3d
       -0.12640913 0.17594993 0.063679144 0.04531958
0003e0 42 87 11 3e 69 5a 2d 3e 76 78 df 39 0d 31 ec bc
       0.14211753 0.1692902 0.00042623625 -0.028831983
0003f0 e5 21 b0 37 f8 02 bf bc 48 2d be bd e9 d2 b5 b7
       2.0996618e-05 -0.023316845 -0.092859805 -2.1675094e-05

diffmodel.output_projection1.bias f4 [32]
000000 84 4a 31 3d 8d c4 96 bd 40 25 a3 3d fa 00 f5 3d
       0.043283954 -0.07361708 0.07966089 0.11963077
000010 92 14 fd b8 52 be 0d bd 29 7e b5 b7 60 c2 be 39
       -0.000120678116 -0.03460533 -2.163563e-05 0.00036384445
000020 ba 6b b7 bd 5b 62 4f 3d 3f 3d 4a 3b 2d 52 07 bd
       -0.08956094 0.05063091 0.003085926 -0.033037353
000030 94 a6 93 3d 85 25 bf 3b a9 8d 1b 3d 79 55 e1 3c
       0.07209507 0.00583333 0.037976895 0.027506577
000040 aa 71 3e bc 2d 92 fe bc 0a f9 de bd 28 13 5b 3d
       -0.011623779 -0.031075561 -0.10887344 0.053485066
000050 38 e1 d4 bd 23 ea bd bd a7 0d 92 bc a8 a4 91 bd
       -0.103945196 -0.09273174 -0.017828776 -0.07111484
000060 32 be ac 3d f6 63 0f 3b e2 23 af bd f7 45 df 3d
       0.084347144 0.002187965 -0.08551766 0.109020166
000070 97 5c 2a bd a3 98 c7 3d b5 b3 85 bb f3 1c d7 bd
       -0.041592207 0.0974591 -0.0040802606 -0.105035685

diffmodel.output_projection2.weight f4 [1, 32, 1]
000000 00 00 00 00 00 00 00 00 00 00 00 00 00 00 00 00
       0.0 0.0 0.0 0.0
000010 00 00 00 00 00 00 00 00 00 00 00 00 00 00 00 00
       0.0 0.0 0.0 0.0
000020 00 00 00 00 00 00 00 00 00 00 00 00 00 00 00 00
       0.0 0.0 0.0 0.0
000030 00 00 00 00 00 00 00 00 00 00 00 00 00 00 00 00
       0.0 0.0 0.0 0.0
000040 00 00 00 00 00 00 00 00 00 00 00 00 00 00 00 00
       0.0 0.0 0.0 0.0
000050 00 00 00 00 00 00 00 00 00 00 00 00 00 00 00 00
       0.0 0.0 0.0 0.0
000060 00 00 00 00 00 00 00 00 00 00 00 00 00 00 00 00
       0.0 0.0 0.0 0.0
000070 00 00 00 00 00 00 00 00 00 00 00 00 00 00 00 00
       0.0 0.0 0.0 0.0

diffmodel.residual_layers.0.diffusion_projection.weight f4 [32, 64]
000000 91 9f 77 bd 2e a5 1f bc 33 9a 94 b7 bd 8e b6 b7
       -0.06045491 -0.009743972 -1.771478e-05 -2.1762558e-05
000010 a8 7b d7 3b 88 3c 7b 3d a7 a9 46 3b cf a0 c3 3b
       0.0065760203 0.061337024 0.0030313523 0.0059700976
000020 bf b7 80 3c bb 70 3a bd 6d 24 2b bd 75 38 4e 3d
       0.015712617 -0.045517664 -0.041782785 0.05034681
000030 52 f7 2f bd a6 d2 a0 bb 2e e4 9b 3c 24 ec 18 ba
       -0.042960472 -0.0049079238 0.019029703 -0.00058335275
000040 26 a2 bd 3a 43 3e 2c bd 52 13 7e bd d0 20 66 3d
       0.001446788 -0.042051565 -0.062030144 0.056183636
000050 f1 aa 21 3b e7 98 1f bc d0 0a 38 3a bd 8d 24 bc
       0.002466854 -0.009741045 0.0007020654 -0.010043559
000060 ea e6 91 bd 3a 9d 14 3d 87 26 21 bc 65 3e a3 b7
       -0.071241215 0.036282755 -0.009835846 -1.9460169e-05
000070 59 7b f1 36 f7 9a cc bc 69 83 a6 3c e3 80 b9 b9
       7.1967193e-06 -0.024976237 0.020326333 -0.00035381978
000080 56 88 78 3d a4 23 1c ba 9c 29 6f bd 7e ed d3 bc
       0.060676895 -0.00059562386 -0.05838929 -0.025870081
000090 48 ad b0 bc 71 bc a3 3c ba 9e 7b bd ea 4c 91 3b
       -0.021567002 0.019987317 -0.06143067 0.0044342177
0000a0 6a 18 09 bd 62 32 f9 bc b3 b8 50 b9 25 c6 22 bd
       -0.03347055 -0.030419532 -0.00019905232 -0.039739747
0000b0 f5 28 73 3d 0d 31 3b 3d 72 2f d4 3b b1 60 d4 39
       0.05936523 0.045701075 0.0064753825 0.00040507832
0000c0 2c ea 39 3b 21 82 d5 3c ec 75 29 bd 21 c6 a5 3c
       0.0028368337 0.026063027 -0.041372225 0.020236077
0000d0 89 90 ce 3c 62 b8 a3 bb ce a7 8f 3d fb ad a1 b7
       0.025215404 -0.0049963454 0.07014428 -1.9273712e-05
0000e0 82 10 fc 39 14 de 57 3d 81 49 06 ba d4 76 2c 3d
       0.00048077485 0.052702025 -0.0005122647 0.04210551
0000f0 6b 21 ab 3c 70 89 2c bd 23 e2 12 3d ba 57 f8 b9
       0.020889958 -0.042123258 0.035860192 -0.00047367607
000100 21 bc 0e ba 7a 80 31 3d 9d f0 0e 3a a2 a3 7c bc
       -0.00054449035 0.043335415 0.0005452724 -0.0154198725
000110 2b 49 82 bc 83 8e 81 bd 08 8d 09 bd e5 b3 1a 3a
       -0.01590403 -0.0632601 -0.033581764 0.000590144
000120 4d 4c 47 3d 77 02 56 3d f6 69 73 bd 6a f7 ae bc
       0.04865675 0.052248444 -0.059427224 -0.02135821
000130 87 45 6c bd 6e 60 23 bd 16 5a 64 bd 23 a2 57 bd
       -0.057683494 -0.039886884 -0.055749975 -0.05264486
000140 a4 01 30 bd e5 16 20 bc 2f db b6 b9 c1 a8 6c bd
       -0.042970315 -0.0097710835 -0.0003487705 -0.057778124
000150 15 d2 d0 39 b1 cd c6 38 33 1c 38 39 80 80 4a bd
       0.00039829375 9.479689e-05 0.00017558112 -0.049438953
000160 7a 8c f0 b9 d8 f5 b9 bc 0a 19 83 bd ea 96 b2 38
       -0.0004588103 -0.022700235 -0.0640126 8.515811e-05
000170 fa a4 0b bd 99 18 f0 3b 68 77 19 bd cd ea 4d bd
       -0.03409288 0.007327151 -0.03746739 -0.05027275
000180 62 f9 04 3c 27 f6 e4 b8 b4 e1 8c bd 9c 20 13 3d
       0.008116098 -0.00010917737 -0.06878987 0.03591977
000190 e7 2c 19 3a 02 ef a9 bc 6f b6 b9 3c df 2e e6 3c
       0.0005843178 -0.02074385 0.022669999 0.028098522
0001a0 1e 30 0e 3c 8e e2 bc bc 38 88 0d 3d c3 8a 78 37
       0.008678464 -0.023057248 0.034553736 1.481426e-05
0001b0 e4 1f 4e 3d 4f 73 4a bb 13 17 37 3d 08 e6 d0 bc
       0.050323382 -0.0030891483 0.04469974 -0.025500312
0001c0 7d 18 43 bd d1 02 f3 bb cd 0f d6 b9 7e 4e 32 3d
       -0.047630776 -0.007416107 -0.00040829033 0.043531887
0001d0 97 86 f5 39 95 5d fa 39 22 94 c7 b7 04 68 1c ba
       0.0004683032 0.0004775344 -2.3791628e-05 -0.0005966427
0001e0 8f d4 5b bd 98 39 90 b8 6a d1 f7 39 db 07 6a 3c
       -0.05366951 -6.877183e-05 0.00047267537 0.014284099
0001f0 f4 02 10 3d 67 3a c3 37 ce fd b1 3b 34 29 8f 3d
       0.035159066 2.3273007e-05 0.005431867 0.06990281
000200 89 99 83 bc 88 5b ad bc fc ad 5d bd ab 89 d7 3a
       -0.016064422 -0.02116181 -0.054121003 0.0016444226
000210 51 37 5b bd a4 5b 39 bc 98 7d 59 bd 86 de 89 3c
       -0.05351955 -0.011313353 -0.05309829 0.01682974
000220 a0 08 aa bc 25 6f 47 bd e8 18 87 bd ce df bc 3c
       -0.020756066 -0.04868998 -0.06596547 0.023055937
000230 2a 37 8c bc 82 ff af b9 ad d1 3f 3d 97 75 bb 3b
       -0.017116148 -0.0003356897 0.04683082 0.005720805
000240 47 dc 08 3a 4c ca 84 3d 39 ba 9a bc bb 92 58 bc
       0.0005220812 0.064838976 -0.018887626 -0.013218577
000250 b4 ad b3 bc dc 8a 3f 3c 51 19 94 3b dc 86 a9 b9
       -0.021933414 0.0116908215 0.0045196195 -0.0003233467
000260 ac c0 cc b6 77 1b e2 3c e4 6a 35 3c 9a 7d f0 3b
       -6.1021037e-06 0.027600987 0.011072848 0.0073391916
000270 ba 19 47 3d ad c5 40 3d 89 ac 22 ba 66 51 36 3d
       0.04860852 0.04706352 -0.00062055193 0.04451122
000280 c1 5b 89 3d aa 99 b1 b9 db 4d b3 bb 94 85 20 bd
       0.06706954 -0.0003387456 -0.0054719276 -0.03918989
000290 bd 1e 89 bc aa 06 81 3d dd b7 0f 3a 27 8a 43 b9
       -0.01673829 0.06300099 0.0005482415 -0.00018648115
0002a0 d3 a5 c2 b7 a3 9d c0 3c e2 8a 14 37 02 6f 2b 3d
       -2.320382e-05 0.023512667 8.853824e-06 0.041853912
0002b0 97 76 8d bd 7c 20 89 bd 62 6a 89 3d 0d 2e b0 bb
       -0.06907385 -0.06695649 0.06709744 -0.0053765834
0002c0 e3 6c d9 3a 5c e4 80 bc 5e 0e 6f 3d e2 43 09 3d
       0.0016588237 -0.01573389 0.05836331 0.033512004
0002d0 b9 09 41 bd 3c b3 e2 3c 32 14 54 bd d5 3e 26 b9
       -0.047128413 0.027673356 -0.051777072 -0.000158544
0002e0 f3 73 1b bd 50 a5 de 39 27 81 49 3d c2 c5 1d bd
       -0.037952375 0.00042466307 0.049195435 -0.038518675
0002f0 ca db a6 b7 56 5c 73 bb d1 9e 33 3d 25 8c 84 b9
       -1.989109e-05 -0.0037133894 0.04385263 -0.00025281418
000300 04 93 98 bc 09 44 8f bd 1f 49 8b bd 42 7d 53 39
       -0.01862479 -0.069953986 -0.06801056 0.0002016919
000310 71 35 73 3d b8 2a a6 bb 44 01 42 3b d1 95 7b 3a
       0.059377138 -0.0050710104 0.0029602805 0.00095972145
000320 e8 ab 8f 37 ea 36 a6 38 76 25 35 3d b0 aa 93 3d
       1.7126978e-05 7.9257254e-05 0.04422518 0.072102904
000330 08 a0 71 bb 35 4d dd bc a6 d3 16 bd 9c 20 81 bd
       -0.0036869068 -0.027014354 -0.036822937 -0.06305048
000340 07 68 ba b7 05 f5 60 3d 6b 55 41 3d 92 2e b2 3c
       -2.222137e-05 0.05492117 0.0472006 0.021750722
000350 23 d4 5b 3c 70 58 4e 3d e2 f4 35 bc 30 3c 77 bd
       0.013417277 0.05037731 -0.011105748 -0.060360134
000360 90 9a 84 3d c7 f9 75 39 17 81 64 3d 43 fa 81 3d
       0.06474793 0.0002345807 0.055787172 0.06346562
000370 9e 81 04 3a e4 75 01 3d a0 f1 80 3d 0e 81 37 bb
       0.0005054715 0.03160657 0.06296086 -0.0028000507
000380 f9 a0 16 3c 47 26 29 3d eb 46 be 39 34 84 aa 37
       0.009193652 0.04129627 0.00036292462 2.0327141e-05
000390 5d a1 83 3d cd e8 18 ba 9e 10 01 bc cc 34 bf b6
       0.06427262 -0.000583303 -0.007877497 -5.69839e-06
0003a0 0f 7a 8e bd 32 84 86 bd c1 28 0d bd da a3 22 bd
       -0.069568746 -0.06568183 -0.034462694 -0.039707042
0003b0 36 ee 98 bc f6 e5 4c 3c 74 72 db bc f1 db 37 bd
       -0.018668275 0.012505999 -0.026787974 -0.044887487
0003c0 4b 6b ad 3c e3 a3 f8 3c 43 5b 03 3b dd da af 3c
       0.021169325 0.030351585 0.002004341 0.021466667
0003d0 14 64 4d 3d a7 90 47 bd 2b c0 7b 3d 81 4d 6b bd
       0.05014427 -0.048721936 0.061462563 -0.05744696
0003e0 3a 31 4a 3b c3 3a 25 3b d0 e6 82 3d 8c bc 8b b7
       0.0030852095 0.0025212027 0.0639168 -1.665789e-05
0003f0 ab fa b7 b9 1e 86 51 3d 80 87 f0 b9 58 c2 ca bc
       -0.00035091242 0.051153295 -0.00045877323 -0.024750873

diffmodel.residual_layers.0.diffusion_projection.bias f4 [32]
000000 73 99 64 bc ef f5 5e 3c 7a bb 4c 3c 4b 10 d9 b9
       -0.013952601 0.01360844 0.01249587 -0.00041401605
000010 70 ed 74 3d 98 cb 82 3b 05 2c bb 3c 85 4c b7 bc
       0.05979675 0.0039915554 0.022848139 -0.022375355
000020 0c c2 2b bc 95 44 e8 ba 03 90 fd 39 59 f6 fc bc
       -0.010483276 -0.0017720634 0.00048363218 -0.030879186
000030 ad 52 8c 3b 7b 12 64 bb cb e4 1f 3d 68 70 72 3d
       0.0042823167 -0.0034801054 0.039036553 0.05918923
000040 af f0 6d 3d f6 92 0b bd ec 4f 35 bc 9d 29 15 bc
       0.058090862 -0.0340757 -0.011066418 -0.00910416
000050 85 7c 8f 3d 6f 4d 1a ba 60 b9 07 3a 25 23 15 3a
       0.07006172 -0.00058861723 0.00051774643 0.0005689136
000060 98 5c 51 3d b0 e9 77 3c ac 52 5f bd 3e 7c f5 bc
       0.051113695 0.015131399 -0.0545222 -0.02996647
000070 6c 65 1c ba 94 5c 27 3c f1 cb 59 3c 8f 69 9f bc
       -0.0005966041 0.010214943 0.013293252 -0.019459514

diffmodel.residual_layers.0.cond_projection.weight f4 [64, 81, 1]
000000 3a 61 d2 bd d9 d0 e7 bb 67 b9 d5 b6 00 0c a4 bc
       -0.10272451 -0.007074457 -6.3694783e-06 -0.020025253
000010 e1 78 d8 3d b2 7a 57 be c2 0e c3 3b b0 a9 02 3d
       0.10569931 -0.21042898 0.005952687 0.031900108
000020 18 46 bf bc 88 98 c1 3d 20 67 f0 3c d0 44 be b8
       -0.023348853 0.09452921 0.029346049 -9.072723e-05
000030 24 2c 98 3d 68 06 68 3e 02 e0 b4 be fa b8 af bb
       0.07430294 0.22658694 -0.35327154 -0.005362627
000040 78 be 6f 3d a8 8e 5a bb b6 6e cd 3d 56 46 46 3e
       0.058531255 -0.003334919 0.10030882 0.19362769
000050 b4 af 38 bd ba 57 b9 3e 5a 99 25 3d ce ff 41 3b
       -0.04508944 0.36199743 0.04042945 0.0029601934
000060 e7 f5 1a be f8 82 af 3c df b7 6f 3e 6b d6 8c 3e
       -0.15132867 0.021424755 0.23409985 0.27507338
000070 6d 8e 15 be ee 23 f2 bc db b2 6a be b4 fa 56 3e
       -0.14605112 -0.029558148 -0.2291979 0.20994073
000080 2f fe 18 ba 49 ce 3a 3b fa 97 8b bc 55 d7 45 3d
       -0.0005836216 0.0028504303 -0.017040242 0.04830106
000090 69 38 f8 bb fd 65 47 3e 87 0d 16 ba 3b 12 2a b9
       -0.007575084 0.19472499 -0.00057240616 -0.00016219255
0000a0 29 b5 e7 bd 42 63 7e 3c 50 17 36 be 5d 8f 6f 38
       -0.113138504 0.015526595 -0.1778233 5.7115558e-05
0000b0 50 3a fa bd b9 3e af 3c 2e 82 94 be d9 52 17 be
       -0.122181535 0.021392213 -0.2900557 -0.14777698
0000c0 3e 22 ba bd 0f 46 72 36 5d 73 3d 3a f7 93 32 3c
       -0.090885624 3.610159e-06 0.00072269683 0.010899535
0000d0 a5 12 a9 39 56 7b 3c 3c c1 0c 0f be 0f 29 2e bd
       0.00032248083 0.011504015 -0.13969709 -0.042519625
0000e0 77 5d 74 3d a9 51 07 39 cb 7c 19 3e ff 3c 83 3d
       0.059659448 0.00012905024 0.14989011 0.064081185
0000f0 68 1b e3 3c b1 d8 07 3e 70 af 21 3b 9e a2 3b bd
       0.02772303 0.13266255 0.002467122 -0.04580938
000100 46 a9 b7 37 11 8f 5c bc f3 fa d2 38 36 14 15 3e
       2.1894124e-05 -0.013461844 0.00010060323 0.14558491
000110 99 d8 ca bd 68 bd a2 3e 93 a9 dd 3d f0 8c 68 be
       -0.09904594 0.3178513 0.10823359 -0.22710013
000120 06 06 bd bc 4a 41 f0 bd d1 d9 53 be f7 f3 59 3e
       -0.023074161 -0.11731203 -0.20688559 0.21284471
000130 e6 d1 88 be 87 52 2d 3d 99 79 d1 3d 51 77 77 38
       -0.2672264 0.042315032 0.10228271 5.900051e-05
000140 f4 96 65 bc 32 7d 12 3a 1a 46 7b bd 90 9a fe 3c
       -0.014013041 0.00055881136 -0.06134615 0.03107956
000150 a2 94 5e bc 83 48 a8 3d d5 a7 64 3c 17 7c c1 3d
       -0.0135852415 0.082169555 0.01395603 0.094474964
000160 23 08 0a ba 19 b0 85 3d 41 42 b8 3c 1d 09 10 3a
       -0.00052654947 0.065277286 0.02249253 0.0005494522
000170 8a 73 93 bd a3 87 db 36 1e 5f ec bd 86 53 48 be
       -0.07199772 6.542499e-06 -0.1154158 -0.19563112
000180 d1 58 0d be c0 e3 98 bc 0d 74 b4 3d 41 b6 97 bc
       -0.13803412 -0.018663287 0.088111974 -0.018519523
000190 b9 0e ff 3c cc db 1f b9 db 06 2b bd d2 f6 b1 3d
       0.03113495 -0.00015245302 -0.041754585 0.08689655
0001a0 84 63 a4 bd 8f cb 35 bc b8 69 1b ba 7e 89 d9 3d
       -0.080267936 -0.011095895 -0.0005928534 0.10621928
0001b0 ec 85 95 be f7 e3 da 3d ff 86 48 bd 7c cb 06 ba
       -0.29203737 0.10688012 -0.048956867 -0.0005142016
0001c0 78 81 ad 37 e4 48 c6 ba 2d 31 56 39 a2 bd 84 bd
       2.0683496e-05 -0.0015127924 0.0002042695 -0.06481482
0001d0 88 4e b4 3d f5 59 0b 3e 03 98 84 bd 86 1a 48 bc
       0.08804041 0.13608535 -0.064743064 -0.012213355
0001e0 9b b8 89 be af 80 a5 bd 7e ce 13 be f7 e9 7c 3d
       -0.26898655 -0.08081185 -0.1443424 0.061746564
0001f0 e0 d1 a9 3c af 3f 43 3e 49 7c 61 3e 58 35 e2 bd
       0.020729959 0.19067262 0.22020067 -0.11045331
000200 a8 7d bb bc 71 06 d0 bb 5a 28 05 3d 88 ce 45 3b
       -0.022887066 -0.006348424 0.032509185 0.0030182917
000210 30 c5 28 be d7 78 64 bd 25 c0 a3 bd 1a aa 72 3e
       -0.16481471 -0.055779304 -0.07995633 0.23697701
000220 75 e2 4e be af 4b 79 be 4a c8 5c 3e ad 34 23 3e
       -0.20203574 -0.24345277 0.21560779 0.15938063
000230 4e 62 fb 3d f9 6f eb 39 22 d8 98 bd d6 7f 17 3d
       0.122746095 0.0004490612 -0.07463099 0.03698715
000240 42 e2 a1 3d a7 5c 81 b9 83 1c cc bc c1 8b 80 3e
       0.079044834 -0.0002467383 -0.02491594 0.25106624
000250 5d 96 32 37 7e 0d a0 3d ad ef 75 3c d2 34 40 3e
       1.0644636e-05 0.078150734 0.015010756 0.1877015
000260 b3 7e 52 39 e4 76 e2 ba 71 0e 06 3b ac dc a4 be
       0.0002007436 -0.0017277864 0.0020455385 -0.3219961
000270 eb 79 2f b9 d4 d6 a8 bc 0d 11 40 be da cf 37 be
       -0.00016734719 -0.02061025 -0.18756504 -0.17950383
000280 e0 5f 19 ba b0 31 a6 bd 52 90 c6 3c c5 cf 96 bd
       -0.00058507733 -0.08114946 0.02423874 -0.07363848
000290 10 c1 09 be e9 6a 95 b7 de 4c 44 be f2 7f 6d 3b
       -0.13452554 -1.7811968e-05 -0.19169948 0.0036239591
0002a0 22 6f 6c 3b 2a 50 03 ba 23 bf 9a 3d 15 17 5d be
       0.0036076983 -0.0005009199 0.07555988 -0.21590836
0002b0 54 c6 46 3d 9b 10 1d 3d 1e 3d f9 bd e3 02 13 bd
       0.048528984 0.038345914 -0.1216986 -0.035891425
0002c0 ad 67 c1 bd 39 b7 3f 3d f9 f8 e7 bd 5c c2 50 3e
       -0.09443603 0.046805594 -0.11326785 0.20386642
0002d0 cc 9f 11 3c 94 a0 14 bd fa 07 ca bd 3e 6d c7 bd
       0.008888196 -0.03628595 -0.09864803 -0.09737633
0002e0 47 34 4e bc 9f 00 c4 b7 95 a0 23 3e 37 dc 2c bd
       -0.012585706 -2.336531e-05 0.15979226 -0.0422022
0002f0 05 ad e7 bd a9 8f c7 bd 3c 1a b9 bc 99 dc f1 bc
       -0.11312298 -0.09744198 -0.022595517 -0.029524134
000300 5e be a2 bd bf 0f 5a 3c 57 ea eb 3d 2d 2f ac 3d
       -0.07946466 0.013309418 0.11519306 0.084074356
000310 82 51 02 37 de 9b af bd 54 41 04 3a af fa 9a 3d
       7.767581e-06 -0.08574651 0.0005045135 0.07567345
000320 2a 05 64 be c9 19 42 bd cb 59 df bc 8d c6 03 bd
       -0.22267595 -0.047387872 -0.027264496 -0.032171775
000330 04 2b 06 bd 78 25 d9 bd 99 2e c2 be 6b 6e 6e bc
       -0.032755867 -0.1060285 -0.37926176 -0.014552693
000340 3f 55 1b 3d e3 d4 21 bd c2 4d b0 3c cf 60 94 bc
       0.037923094 -0.039509665 0.021521453 -0.018112568
000350 35 d4 d3 bc 88 59 10 ba 16 ac 01 3e 67 fb 9f 3d
       -0.025858024 -0.0005506505 0.12663302 0.07811623
000360 59 08 15 be 3e 4d d2 b5 de 6f 02 be d1 10 e0 b9
       -0.14553966 -1.56687e-06 -0.12737986 -0.0004273714
000370 05 ae 0e 3d ef 83 2b b4 2f bf d6 3b 94 fd a9 3d
       0.034833927 -1.5973613e-07 0.0065535526 0.08300319
000380 ec 6c 87 bd 1e 09 06 3c f2 aa 15 3a 1f f4 b4 bc
       -0.06612572 0.008180885 0.0005709372 -0.022089062
000390 52 d2 35 3d d5 62 1f 3b fc d2 8a 3c 20 28 9c 3a
       0.04439003 0.0024320383 0.016946308 0.0011913814
0003a0 ef 20 a5 bc e2 19 91 b7 bc 4e b3 be b3 eb a5 3e
       -0.020157306 -1.72974e-05 -0.35021007 0.32406387
0003b0 6e 5c 64 bc cb 1a c6 b9 dc 34 cc bd 79 13 d1 3e
       -0.013938053 -0.00037785465 -0.099710196 0.4083517
0003c0 93 0b 30 bd d1 ea 81 3b b8 bb a8 3e 4e 14 26 3e
       -0.042979788 0.00396476 0.32955718 0.16218683
0003d0 31 3d 80 3d 66 07 a3 3c 67 73 8e b9 6f 6d 89 b7
       0.06261671 0.019900989 -0.00027170332 -1.6382632e-05
0003e0 b7 c6 c1 ba 28 ae 1d 3a 42 1d 8a 3d 8b 27 a0 3d
       -0.0014783953 0.0006015026 0.06743862 0.07820042
0003f0 66 20 fc bc a8 f3 01 3e 0e 12 66 3e f2 9c 16 ba
       -0.030777168 0.12690604 0.22467825 -0.00057454326

diffmodel.residual_layers.0.cond_projection.bias f4 [64]
000000 71 cc 10 ba dd 4f 78 b5 e5 d9 16 ba ef ee 4e bd
       -0.0005523628 -9.2503416e-07 -0.0005754515 -0.050520834
000010 59 65 33 39 bf 3f 80 38 24 46 c3 bc 89 4c b4 3c
       0.00017108525 6.115389e-05 -0.023837157 0.022009151
000020 d4 df 6b 3c 20 81 67 35 41 a5 62 3d 2d 53 fb bc
       0.0143966265 8.624211e-07 0.05533338 -0.03067931
000030 24 88 36 bd 45 41 18 ba f7 3f 3d b7 8e 03 e3 3c
       -0.044563428 -0.0005808066 -1.1280171e-05 0.027711656
000040 ed f3 82 b8 d8 2d f4 3b 71 a3 0f bd 2f 27 02 3c
       -6.244318e-05 0.007451754 -0.03506798 0.007943912
000050 89 e5 99 bc 05 1f 37 bd 27 5d 0a bd 10 42 cf bc
       -0.018786209 -0.044707317 -0.033780243 -0.025300056
000060 dd 10 f2 3a 56 22 f7 bb 71 f7 dd 39 db 46 1b 3a
       0.001846816 -0.007541935 0.00042336763 0.0005923339
000070 a3 cd c9 b8 09 b1 0d bc 14 ac 12 ba 1d ea 6b 3d
       -9.62273e-05 -0.0086481655 -0.00055950996 0.057596315
000080 59 60 20 bc 79 cf 9c b7 e0 0e 3f bc 74 dc 8d 37
       -0.009788596 -1.8693261e-05 -0.011661261 1.6911166e-05
000090 5d 62 10 bd 96 0a 80 38 c5 b4 10 3d 98 c8 49 bc
       -0.035250057 6.1054874e-05 0.035328645 -0.012315892
0000a0 26 51 29 bd 4e 4d 1a bd 0d ac e2 bc de f2 66 bd
       -0.041337155 -0.03767138 -0.02766993 -0.05638396
0000b0 58 bf 0b 3a c1 88 35 bc 50 c6 1b 3a b6 1a 70 bd
       0.00053309416 -0.011079968 0.00059423316 -0.058619224
0000c0 c4 f9 40 3d 1d ab fe 3c 33 a6 d5 bc d8 e6 d7 3c
       0.047113195 0.031087453 -0.026080227 0.026355192
0000d0 4a 0c e9 bc 76 22 d9 bc 02 92 30 bc 93 16 8b b9
       -0.028448243 -0.02650569 -0.0107769985 -0.00026528965
0000e0 60 5f 37 bb 56 2d 02 3c ae 6b 50 3d ae 17 f7 b8
       -0.0027980432 0.007945379 0.05088394 -0.000117822885
0000f0 d0 5c e1 3c 11 a9 a2 bc 11 62 07 3b 8d 15 36 bb
       0.027510077 -0.019856008 0.0020657817 -0.0027783841
